{"format": "graph-model", "generatedBy": "1.15.2", "convertedBy": "TensorFlow.js Converter v1.4.0", "userDefinedMetadata": {"signature": {"outputs": {"Postprocessor/Slice": {"name": "Postprocessor/Slice"}, "Postprocessor/ExpandDims_1": {"name": "Postprocessor/ExpandDims_1"}}}}, "modelTopology": {"node": [{"name": "image_tensor", "op": "Placeholder", "attr": {"dtype": {"type": "DT_UINT8"}, "shape": {"shape": {"dim": [{"size": "-1"}, {"size": "-1"}, {"size": "-1"}, {"size": "3"}]}}}}, {"name": "Preprocessor/map/strided_slice/stack", "op": "Const", "attr": {"value": {"tensor": {"dtype": "DT_INT32", "tensorShape": {"dim": [{"size": "1"}]}}}, "dtype": {"type": "DT_INT32"}}}, {"name": "Preprocessor/map/strided_slice/stack_1", "op": "Const", "attr": {"value": {"tensor": {"dtype": "DT_INT32", "tensorShape": {"dim": [{"size": "1"}]}}}, "dtype": {"type": "DT_INT32"}}}, {"name": "Preprocessor/map/TensorArrayUnstack/range/start", "op": "Const", "attr": {"value": {"tensor": {"dtype": "DT_INT32", "tensorShape": {}}}, "dtype": {"type": "DT_INT32"}}}, {"name": "Preprocessor/map/TensorArrayUnstack/range/delta", "op": "Const", "attr": {"value": {"tensor": {"dtype": "DT_INT32", "tensorShape": {}}}, "dtype": {"type": "DT_INT32"}}}, {"name": "BoxPredictor_4/ClassPredictor/act_quant/max", "op": "Const", "attr": {"value": {"tensor": {"dtype": "DT_FLOAT", "tensorShape": {}}}, "dtype": {"type": "DT_FLOAT"}}}, {"name": "BoxPredictor_5/BoxEncodingPredictor/act_quant/min", "op": "Const", "attr": {"value": {"tensor": {"dtype": "DT_FLOAT", "tensorShape": {}}}, "dtype": {"type": "DT_FLOAT"}}}, {"name": "BoxPredictor_5/BoxEncodingPredictor/act_quant/max", "op": "Const", "attr": {"value": {"tensor": {"dtype": "DT_FLOAT", "tensorShape": {}}}, "dtype": {"type": "DT_FLOAT"}}}, {"name": "Preprocessor/mul/x", "op": "Const", "attr": {"value": {"tensor": {"dtype": "DT_FLOAT", "tensorShape": {}}}, "dtype": {"type": "DT_FLOAT"}}}, {"name": "Preprocessor/sub/y", "op": "Const", "attr": {"value": {"tensor": {"dtype": "DT_FLOAT", "tensorShape": {}}}, "dtype": {"type": "DT_FLOAT"}}}, {"name": "FeatureExtractor/MobilenetV2/expanded_conv_7/expand/weights_quant/FakeQuantWithMinMaxVars", "op": "Const", "attr": {"value": {"tensor": {"dtype": "DT_FLOAT", "tensorShape": {"dim": [{"size": "1"}, {"size": "1"}, {"size": "64"}, {"size": "384"}]}}}, "dtype": {"type": "DT_FLOAT"}}}, {"name": "FeatureExtractor/MobilenetV2/expanded_conv_7/expand/act_quant/min", "op": "Const", "attr": {"value": {"tensor": {"dtype": "DT_FLOAT", "tensorShape": {}}}, "dtype": {"type": "DT_FLOAT"}}}, {"name": "FeatureExtractor/MobilenetV2/expanded_conv_7/expand/act_quant/max", "op": "Const", "attr": {"value": {"tensor": {"dtype": "DT_FLOAT", "tensorShape": {}}}, "dtype": {"type": "DT_FLOAT"}}}, {"name": "FeatureExtractor/MobilenetV2/layer_19_1_Conv2d_5_1x1_64/weights_quant/FakeQuantWithMinMaxVars", "op": "Const", "attr": {"value": {"tensor": {"dtype": "DT_FLOAT", "tensorShape": {"dim": [{"size": "1"}, {"size": "1"}, {"size": "256"}, {"size": "64"}]}}}, "dtype": {"type": "DT_FLOAT"}}}, {"name": "FeatureExtractor/MobilenetV2/expanded_conv_7/depthwise/weights_quant/FakeQuantWithMinMaxVars", "op": "Const", "attr": {"value": {"tensor": {"dtype": "DT_FLOAT", "tensorShape": {"dim": [{"size": "3"}, {"size": "3"}, {"size": "384"}, {"size": "1"}]}}}, "dtype": {"type": "DT_FLOAT"}}}, {"name": "FeatureExtractor/MobilenetV2/layer_19_1_Conv2d_5_1x1_64/act_quant/max", "op": "Const", "attr": {"dtype": {"type": "DT_FLOAT"}, "value": {"tensor": {"dtype": "DT_FLOAT", "tensorShape": {}}}}}, {"name": "FeatureExtractor/MobilenetV2/expanded_conv_8/expand/weights_quant/FakeQuantWithMinMaxVars", "op": "Const", "attr": {"value": {"tensor": {"dtype": "DT_FLOAT", "tensorShape": {"dim": [{"size": "1"}, {"size": "1"}, {"size": "64"}, {"size": "384"}]}}}, "dtype": {"type": "DT_FLOAT"}}}, {"name": "FeatureExtractor/MobilenetV2/layer_19_2_Conv2d_5_3x3_s2_128/weights_quant/FakeQuantWithMinMaxVars", "op": "Const", "attr": {"value": {"tensor": {"dtype": "DT_FLOAT", "tensorShape": {"dim": [{"size": "3"}, {"size": "3"}, {"size": "64"}, {"size": "128"}]}}}, "dtype": {"type": "DT_FLOAT"}}}, {"name": "FeatureExtractor/MobilenetV2/expanded_conv_8/depthwise/weights_quant/FakeQuantWithMinMaxVars", "op": "Const", "attr": {"value": {"tensor": {"dtype": "DT_FLOAT", "tensorShape": {"dim": [{"size": "3"}, {"size": "3"}, {"size": "384"}, {"size": "1"}]}}}, "dtype": {"type": "DT_FLOAT"}}}, {"name": "FeatureExtractor/MobilenetV2/expanded_conv_9/expand/weights_quant/FakeQuantWithMinMaxVars", "op": "Const", "attr": {"value": {"tensor": {"dtype": "DT_FLOAT", "tensorShape": {"dim": [{"size": "1"}, {"size": "1"}, {"size": "64"}, {"size": "384"}]}}}, "dtype": {"type": "DT_FLOAT"}}}, {"name": "FeatureExtractor/MobilenetV2/expanded_conv_9/depthwise/weights_quant/FakeQuantWithMinMaxVars", "op": "Const", "attr": {"value": {"tensor": {"dtype": "DT_FLOAT", "tensorShape": {"dim": [{"size": "3"}, {"size": "3"}, {"size": "384"}, {"size": "1"}]}}}, "dtype": {"type": "DT_FLOAT"}}}, {"name": "FeatureExtractor/MobilenetV2/expanded_conv_10/expand/weights_quant/FakeQuantWithMinMaxVars", "op": "Const", "attr": {"value": {"tensor": {"dtype": "DT_FLOAT", "tensorShape": {"dim": [{"size": "1"}, {"size": "1"}, {"size": "64"}, {"size": "384"}]}}}, "dtype": {"type": "DT_FLOAT"}}}, {"name": "BoxPredictor_0/BoxEncodingPredictor/weights_quant/FakeQuantWithMinMaxVars", "op": "Const", "attr": {"value": {"tensor": {"dtype": "DT_FLOAT", "tensorShape": {"dim": [{"size": "1"}, {"size": "1"}, {"size": "576"}, {"size": "12"}]}}}, "dtype": {"type": "DT_FLOAT"}}}, {"name": "FeatureExtractor/MobilenetV2/expanded_conv_10/depthwise/weights_quant/FakeQuantWithMinMaxVars", "op": "Const", "attr": {"value": {"tensor": {"dtype": "DT_FLOAT", "tensorShape": {"dim": [{"size": "3"}, {"size": "3"}, {"size": "384"}, {"size": "1"}]}}}, "dtype": {"type": "DT_FLOAT"}}}, {"name": "BoxPredictor_0/BoxEncodingPredictor/act_quant/min", "op": "Const", "attr": {"value": {"tensor": {"dtype": "DT_FLOAT", "tensorShape": {}}}, "dtype": {"type": "DT_FLOAT"}}}, {"name": "BoxPredictor_0/BoxEncodingPredictor/act_quant/max", "op": "Const", "attr": {"value": {"tensor": {"dtype": "DT_FLOAT", "tensorShape": {}}}, "dtype": {"type": "DT_FLOAT"}}}, {"name": "FeatureExtractor/MobilenetV2/expanded_conv_10/project/weights_quant/FakeQuantWithMinMaxVars", "op": "Const", "attr": {"value": {"tensor": {"dtype": "DT_FLOAT", "tensorShape": {"dim": [{"size": "1"}, {"size": "1"}, {"size": "384"}, {"size": "96"}]}}}, "dtype": {"type": "DT_FLOAT"}}}, {"name": "FeatureExtractor/MobilenetV2/expanded_conv_10/project/act_quant/min", "op": "Const", "attr": {"value": {"tensor": {"dtype": "DT_FLOAT", "tensorShape": {}}}, "dtype": {"type": "DT_FLOAT"}}}, {"name": "FeatureExtractor/MobilenetV2/expanded_conv_10/project/act_quant/max", "op": "Const", "attr": {"value": {"tensor": {"dtype": "DT_FLOAT", "tensorShape": {}}}, "dtype": {"type": "DT_FLOAT"}}}, {"name": "BoxPredictor_0/ClassPredictor/weights_quant/FakeQuantWithMinMaxVars", "op": "Const", "attr": {"value": {"tensor": {"dtype": "DT_FLOAT", "tensorShape": {"dim": [{"size": "1"}, {"size": "1"}, {"size": "576"}, {"size": "273"}]}}}, "dtype": {"type": "DT_FLOAT"}}}, {"name": "FeatureExtractor/MobilenetV2/expanded_conv_11/expand/weights_quant/FakeQuantWithMinMaxVars", "op": "Const", "attr": {"value": {"tensor": {"dtype": "DT_FLOAT", "tensorShape": {"dim": [{"size": "1"}, {"size": "1"}, {"size": "96"}, {"size": "576"}]}}}, "dtype": {"type": "DT_FLOAT"}}}, {"name": "BoxPredictor_0/ClassPredictor/act_quant/min", "op": "Const", "attr": {"value": {"tensor": {"dtype": "DT_FLOAT", "tensorShape": {}}}, "dtype": {"type": "DT_FLOAT"}}}, {"name": "BoxPredictor_0/ClassPredictor/act_quant/max", "op": "Const", "attr": {"value": {"tensor": {"dtype": "DT_FLOAT", "tensorShape": {}}}, "dtype": {"type": "DT_FLOAT"}}}, {"name": "FeatureExtractor/MobilenetV2/expanded_conv_11/depthwise/weights_quant/FakeQuantWithMinMaxVars", "op": "Const", "attr": {"value": {"tensor": {"dtype": "DT_FLOAT", "tensorShape": {"dim": [{"size": "3"}, {"size": "3"}, {"size": "576"}, {"size": "1"}]}}}, "dtype": {"type": "DT_FLOAT"}}}, {"name": "BoxPredictor_1/BoxEncodingPredictor/weights_quant/FakeQuantWithMinMaxVars", "op": "Const", "attr": {"value": {"tensor": {"dtype": "DT_FLOAT", "tensorShape": {"dim": [{"size": "1"}, {"size": "1"}, {"size": "1280"}, {"size": "24"}]}}}, "dtype": {"type": "DT_FLOAT"}}}, {"name": "FeatureExtractor/MobilenetV2/expanded_conv_12/expand/weights_quant/FakeQuantWithMinMaxVars", "op": "Const", "attr": {"value": {"tensor": {"dtype": "DT_FLOAT", "tensorShape": {"dim": [{"size": "1"}, {"size": "1"}, {"size": "96"}, {"size": "576"}]}}}, "dtype": {"type": "DT_FLOAT"}}}, {"name": "BoxPredictor_1/BoxEncodingPredictor/act_quant/min", "op": "Const", "attr": {"value": {"tensor": {"dtype": "DT_FLOAT", "tensorShape": {}}}, "dtype": {"type": "DT_FLOAT"}}}, {"name": "BoxPredictor_1/BoxEncodingPredictor/act_quant/max", "op": "Const", "attr": {"value": {"tensor": {"dtype": "DT_FLOAT", "tensorShape": {}}}, "dtype": {"type": "DT_FLOAT"}}}, {"name": "FeatureExtractor/MobilenetV2/expanded_conv_12/depthwise/weights_quant/FakeQuantWithMinMaxVars", "op": "Const", "attr": {"value": {"tensor": {"dtype": "DT_FLOAT", "tensorShape": {"dim": [{"size": "3"}, {"size": "3"}, {"size": "576"}, {"size": "1"}]}}}, "dtype": {"type": "DT_FLOAT"}}}, {"name": "BoxPredictor_1/ClassPredictor/weights_quant/FakeQuantWithMinMaxVars", "op": "Const", "attr": {"value": {"tensor": {"dtype": "DT_FLOAT", "tensorShape": {"dim": [{"size": "1"}, {"size": "1"}, {"size": "1280"}, {"size": "546"}]}}}, "dtype": {"type": "DT_FLOAT"}}}, {"name": "FeatureExtractor/MobilenetV2/expanded_conv_13/expand/weights_quant/FakeQuantWithMinMaxVars", "op": "Const", "attr": {"dtype": {"type": "DT_FLOAT"}, "value": {"tensor": {"dtype": "DT_FLOAT", "tensorShape": {"dim": [{"size": "1"}, {"size": "1"}, {"size": "96"}, {"size": "576"}]}}}}}, {"name": "BoxPredictor_1/ClassPredictor/act_quant/min", "op": "Const", "attr": {"value": {"tensor": {"dtype": "DT_FLOAT", "tensorShape": {}}}, "dtype": {"type": "DT_FLOAT"}}}, {"name": "BoxPredictor_1/ClassPredictor/act_quant/max", "op": "Const", "attr": {"value": {"tensor": {"dtype": "DT_FLOAT", "tensorShape": {}}}, "dtype": {"type": "DT_FLOAT"}}}, {"name": "FeatureExtractor/MobilenetV2/expanded_conv_13/depthwise/weights_quant/FakeQuantWithMinMaxVars", "op": "Const", "attr": {"value": {"tensor": {"dtype": "DT_FLOAT", "tensorShape": {"dim": [{"size": "3"}, {"size": "3"}, {"size": "576"}, {"size": "1"}]}}}, "dtype": {"type": "DT_FLOAT"}}}, {"name": "FeatureExtractor/MobilenetV2/expanded_conv_13/project/weights_quant/FakeQuantWithMinMaxVars", "op": "Const", "attr": {"dtype": {"type": "DT_FLOAT"}, "value": {"tensor": {"dtype": "DT_FLOAT", "tensorShape": {"dim": [{"size": "1"}, {"size": "1"}, {"size": "576"}, {"size": "160"}]}}}}}, {"name": "FeatureExtractor/MobilenetV2/expanded_conv_13/project/act_quant/min", "op": "Const", "attr": {"value": {"tensor": {"dtype": "DT_FLOAT", "tensorShape": {}}}, "dtype": {"type": "DT_FLOAT"}}}, {"name": "FeatureExtractor/MobilenetV2/expanded_conv_13/project/act_quant/max", "op": "Const", "attr": {"value": {"tensor": {"dtype": "DT_FLOAT", "tensorShape": {}}}, "dtype": {"type": "DT_FLOAT"}}}, {"name": "BoxPredictor_2/BoxEncodingPredictor/weights_quant/FakeQuantWithMinMaxVars", "op": "Const", "attr": {"dtype": {"type": "DT_FLOAT"}, "value": {"tensor": {"dtype": "DT_FLOAT", "tensorShape": {"dim": [{"size": "1"}, {"size": "1"}, {"size": "512"}, {"size": "24"}]}}}}}, {"name": "BoxPredictor_2/BoxEncodingPredictor/act_quant/min", "op": "Const", "attr": {"value": {"tensor": {"dtype": "DT_FLOAT", "tensorShape": {}}}, "dtype": {"type": "DT_FLOAT"}}}, {"name": "FeatureExtractor/MobilenetV2/expanded_conv_14/expand/weights_quant/FakeQuantWithMinMaxVars", "op": "Const", "attr": {"dtype": {"type": "DT_FLOAT"}, "value": {"tensor": {"dtype": "DT_FLOAT", "tensorShape": {"dim": [{"size": "1"}, {"size": "1"}, {"size": "160"}, {"size": "960"}]}}}}}, {"name": "BoxPredictor_2/BoxEncodingPredictor/act_quant/max", "op": "Const", "attr": {"value": {"tensor": {"dtype": "DT_FLOAT", "tensorShape": {}}}, "dtype": {"type": "DT_FLOAT"}}}, {"name": "FeatureExtractor/MobilenetV2/expanded_conv_14/depthwise/weights_quant/FakeQuantWithMinMaxVars", "op": "Const", "attr": {"value": {"tensor": {"dtype": "DT_FLOAT", "tensorShape": {"dim": [{"size": "3"}, {"size": "3"}, {"size": "960"}, {"size": "1"}]}}}, "dtype": {"type": "DT_FLOAT"}}}, {"name": "BoxPredictor_2/ClassPredictor/weights_quant/FakeQuantWithMinMaxVars", "op": "Const", "attr": {"value": {"tensor": {"dtype": "DT_FLOAT", "tensorShape": {"dim": [{"size": "1"}, {"size": "1"}, {"size": "512"}, {"size": "546"}]}}}, "dtype": {"type": "DT_FLOAT"}}}, {"name": "BoxPredictor_0/BoxEncodingPredictor/biases", "op": "Const", "attr": {"value": {"tensor": {"dtype": "DT_FLOAT", "tensorShape": {"dim": [{"size": "12"}]}}}, "dtype": {"type": "DT_FLOAT"}}}, {"name": "BoxPredictor_0/Reshape/shape/1", "op": "Const", "attr": {"value": {"tensor": {"dtype": "DT_INT32", "tensorShape": {}}}, "dtype": {"type": "DT_INT32"}}}, {"name": "BoxPredictor_0/Reshape/shape/3", "op": "Const", "attr": {"value": {"tensor": {"dtype": "DT_INT32", "tensorShape": {}}}, "dtype": {"type": "DT_INT32"}}}, {"name": "BoxPredictor_0/ClassPredictor/biases", "op": "Const", "attr": {"value": {"tensor": {"dtype": "DT_FLOAT", "tensorShape": {"dim": [{"size": "273"}]}}}, "dtype": {"type": "DT_FLOAT"}}}, {"name": "BoxPredictor_2/ClassPredictor/act_quant/min", "op": "Const", "attr": {"value": {"tensor": {"dtype": "DT_FLOAT", "tensorShape": {}}}, "dtype": {"type": "DT_FLOAT"}}}, {"name": "BoxPredictor_0/Reshape_1/shape/2", "op": "Const", "attr": {"value": {"tensor": {"dtype": "DT_INT32", "tensorShape": {}}}, "dtype": {"type": "DT_INT32"}}}, {"name": "BoxPredictor_1/BoxEncodingPredictor/biases", "op": "Const", "attr": {"value": {"tensor": {"dtype": "DT_FLOAT", "tensorShape": {"dim": [{"size": "24"}]}}}, "dtype": {"type": "DT_FLOAT"}}}, {"name": "FeatureExtractor/MobilenetV2/expanded_conv_15/expand/weights_quant/FakeQuantWithMinMaxVars", "op": "Const", "attr": {"dtype": {"type": "DT_FLOAT"}, "value": {"tensor": {"dtype": "DT_FLOAT", "tensorShape": {"dim": [{"size": "1"}, {"size": "1"}, {"size": "160"}, {"size": "960"}]}}}}}, {"name": "BoxPredictor_1/ClassPredictor/biases", "op": "Const", "attr": {"value": {"tensor": {"dtype": "DT_FLOAT", "tensorShape": {"dim": [{"size": "546"}]}}}, "dtype": {"type": "DT_FLOAT"}}}, {"name": "BoxPredictor_2/BoxEncodingPredictor/biases", "op": "Const", "attr": {"value": {"tensor": {"dtype": "DT_FLOAT", "tensorShape": {"dim": [{"size": "24"}]}}}, "dtype": {"type": "DT_FLOAT"}}}, {"name": "BoxPredictor_2/ClassPredictor/biases", "op": "Const", "attr": {"value": {"tensor": {"dtype": "DT_FLOAT", "tensorShape": {"dim": [{"size": "546"}]}}}, "dtype": {"type": "DT_FLOAT"}}}, {"name": "BoxPredictor_2/ClassPredictor/act_quant/max", "op": "Const", "attr": {"value": {"tensor": {"dtype": "DT_FLOAT", "tensorShape": {}}}, "dtype": {"type": "DT_FLOAT"}}}, {"name": "BoxPredictor_3/BoxEncodingPredictor/biases", "op": "Const", "attr": {"value": {"tensor": {"dtype": "DT_FLOAT", "tensorShape": {"dim": [{"size": "24"}]}}}, "dtype": {"type": "DT_FLOAT"}}}, {"name": "BoxPredictor_3/ClassPredictor/biases", "op": "Const", "attr": {"value": {"tensor": {"dtype": "DT_FLOAT", "tensorShape": {"dim": [{"size": "546"}]}}}, "dtype": {"type": "DT_FLOAT"}}}, {"name": "BoxPredictor_4/BoxEncodingPredictor/biases", "op": "Const", "attr": {"value": {"tensor": {"dtype": "DT_FLOAT", "tensorShape": {"dim": [{"size": "24"}]}}}, "dtype": {"type": "DT_FLOAT"}}}, {"name": "BoxPredictor_4/ClassPredictor/biases", "op": "Const", "attr": {"value": {"tensor": {"dtype": "DT_FLOAT", "tensorShape": {"dim": [{"size": "546"}]}}}, "dtype": {"type": "DT_FLOAT"}}}, {"name": "FeatureExtractor/MobilenetV2/expanded_conv_15/depthwise/weights_quant/FakeQuantWithMinMaxVars", "op": "Const", "attr": {"value": {"tensor": {"dtype": "DT_FLOAT", "tensorShape": {"dim": [{"size": "3"}, {"size": "3"}, {"size": "960"}, {"size": "1"}]}}}, "dtype": {"type": "DT_FLOAT"}}}, {"name": "BoxPredictor_5/BoxEncodingPredictor/weights_quant/FakeQuantWithMinMaxVars", "op": "Const", "attr": {"value": {"tensor": {"dtype": "DT_FLOAT", "tensorShape": {"dim": [{"size": "1"}, {"size": "1"}, {"size": "128"}, {"size": "24"}]}}}, "dtype": {"type": "DT_FLOAT"}}}, {"name": "BoxPredictor_5/BoxEncodingPredictor/biases", "op": "Const", "attr": {"value": {"tensor": {"dtype": "DT_FLOAT", "tensorShape": {"dim": [{"size": "24"}]}}}, "dtype": {"type": "DT_FLOAT"}}}, {"name": "BoxPredictor_5/ClassPredictor/biases", "op": "Const", "attr": {"value": {"tensor": {"dtype": "DT_FLOAT", "tensorShape": {"dim": [{"size": "546"}]}}}, "dtype": {"type": "DT_FLOAT"}}}, {"name": "Postprocessor/strided_slice_1/stack_1", "op": "Const", "attr": {"value": {"tensor": {"dtype": "DT_INT32", "tensorShape": {"dim": [{"size": "1"}]}}}, "dtype": {"type": "DT_INT32"}}}, {"name": "Postprocessor/Reshape/shape", "op": "Const", "attr": {"dtype": {"type": "DT_INT32"}, "value": {"tensor": {"dtype": "DT_INT32", "tensorShape": {"dim": [{"size": "2"}]}}}}}, {"name": "Postprocessor/Decode/get_center_coordinates_and_sizes/transpose/perm", "op": "Const", "attr": {"value": {"tensor": {"dtype": "DT_INT32", "tensorShape": {"dim": [{"size": "2"}]}}}, "dtype": {"type": "DT_INT32"}}}, {"name": "Postprocessor/ExpandDims_1/dim", "op": "Const", "attr": {"dtype": {"type": "DT_INT32"}, "value": {"tensor": {"dtype": "DT_INT32", "tensorShape": {}}}}}, {"name": "Postprocessor/Slice/begin", "op": "Const", "attr": {"value": {"tensor": {"dtype": "DT_INT32", "tensorShape": {"dim": [{"size": "3"}]}}}, "dtype": {"type": "DT_INT32"}}}, {"name": "Postprocessor/Slice/size", "op": "Const", "attr": {"value": {"tensor": {"dtype": "DT_INT32", "tensorShape": {"dim": [{"size": "3"}]}}}, "dtype": {"type": "DT_INT32"}}}, {"name": "BoxPredictor_5/ClassPredictor/weights_quant/FakeQuantWithMinMaxVars", "op": "Const", "attr": {"value": {"tensor": {"dtype": "DT_FLOAT", "tensorShape": {"dim": [{"size": "1"}, {"size": "1"}, {"size": "128"}, {"size": "546"}]}}}, "dtype": {"type": "DT_FLOAT"}}}, {"name": "BoxPredictor_5/ClassPredictor/act_quant/min", "op": "Const", "attr": {"value": {"tensor": {"dtype": "DT_FLOAT", "tensorShape": {}}}, "dtype": {"type": "DT_FLOAT"}}}, {"name": "BoxPredictor_5/ClassPredictor/act_quant/max", "op": "Const", "attr": {"value": {"tensor": {"dtype": "DT_FLOAT", "tensorShape": {}}}, "dtype": {"type": "DT_FLOAT"}}}, {"name": "FeatureExtractor/MobilenetV2/Conv/BatchNorm_Fold/bias", "op": "Const", "attr": {"value": {"tensor": {"dtype": "DT_FLOAT", "tensorShape": {"dim": [{"size": "32"}]}}}, "dtype": {"type": "DT_FLOAT"}}}, {"name": "FeatureExtractor/MobilenetV2/expanded_conv/depthwise/BatchNorm_Fold/bias", "op": "Const", "attr": {"value": {"tensor": {"dtype": "DT_FLOAT", "tensorShape": {"dim": [{"size": "32"}]}}}, "dtype": {"type": "DT_FLOAT"}}}, {"name": "FeatureExtractor/MobilenetV2/expanded_conv/project/BatchNorm_Fold/bias", "op": "Const", "attr": {"value": {"tensor": {"dtype": "DT_FLOAT", "tensorShape": {"dim": [{"size": "16"}]}}}, "dtype": {"type": "DT_FLOAT"}}}, {"name": "FeatureExtractor/MobilenetV2/expanded_conv_1/expand/BatchNorm_Fold/bias", "op": "Const", "attr": {"dtype": {"type": "DT_FLOAT"}, "value": {"tensor": {"dtype": "DT_FLOAT", "tensorShape": {"dim": [{"size": "96"}]}}}}}, {"name": "FeatureExtractor/MobilenetV2/expanded_conv_1/depthwise/BatchNorm_Fold/bias", "op": "Const", "attr": {"value": {"tensor": {"dtype": "DT_FLOAT", "tensorShape": {"dim": [{"size": "96"}]}}}, "dtype": {"type": "DT_FLOAT"}}}, {"name": "FeatureExtractor/MobilenetV2/expanded_conv_1/project/BatchNorm_Fold/bias", "op": "Const", "attr": {"value": {"tensor": {"dtype": "DT_FLOAT", "tensorShape": {"dim": [{"size": "24"}]}}}, "dtype": {"type": "DT_FLOAT"}}}, {"name": "FeatureExtractor/MobilenetV2/expanded_conv_2/expand/BatchNorm_Fold/bias", "op": "Const", "attr": {"value": {"tensor": {"dtype": "DT_FLOAT", "tensorShape": {"dim": [{"size": "144"}]}}}, "dtype": {"type": "DT_FLOAT"}}}, {"name": "FeatureExtractor/MobilenetV2/expanded_conv_2/depthwise/BatchNorm_Fold/bias", "op": "Const", "attr": {"value": {"tensor": {"dtype": "DT_FLOAT", "tensorShape": {"dim": [{"size": "144"}]}}}, "dtype": {"type": "DT_FLOAT"}}}, {"name": "FeatureExtractor/MobilenetV2/expanded_conv_2/project/BatchNorm_Fold/bias", "op": "Const", "attr": {"dtype": {"type": "DT_FLOAT"}, "value": {"tensor": {"dtype": "DT_FLOAT", "tensorShape": {"dim": [{"size": "24"}]}}}}}, {"name": "FeatureExtractor/MobilenetV2/expanded_conv_3/expand/BatchNorm_Fold/bias", "op": "Const", "attr": {"value": {"tensor": {"dtype": "DT_FLOAT", "tensorShape": {"dim": [{"size": "144"}]}}}, "dtype": {"type": "DT_FLOAT"}}}, {"name": "FeatureExtractor/MobilenetV2/expanded_conv_3/depthwise/BatchNorm_Fold/bias", "op": "Const", "attr": {"value": {"tensor": {"dtype": "DT_FLOAT", "tensorShape": {"dim": [{"size": "144"}]}}}, "dtype": {"type": "DT_FLOAT"}}}, {"name": "FeatureExtractor/MobilenetV2/expanded_conv_3/project/BatchNorm_Fold/bias", "op": "Const", "attr": {"value": {"tensor": {"dtype": "DT_FLOAT", "tensorShape": {"dim": [{"size": "32"}]}}}, "dtype": {"type": "DT_FLOAT"}}}, {"name": "FeatureExtractor/MobilenetV2/expanded_conv_4/expand/BatchNorm_Fold/bias", "op": "Const", "attr": {"value": {"tensor": {"dtype": "DT_FLOAT", "tensorShape": {"dim": [{"size": "192"}]}}}, "dtype": {"type": "DT_FLOAT"}}}, {"name": "FeatureExtractor/MobilenetV2/expanded_conv_4/depthwise/BatchNorm_Fold/bias", "op": "Const", "attr": {"value": {"tensor": {"dtype": "DT_FLOAT", "tensorShape": {"dim": [{"size": "192"}]}}}, "dtype": {"type": "DT_FLOAT"}}}, {"name": "FeatureExtractor/MobilenetV2/expanded_conv_4/project/BatchNorm_Fold/bias", "op": "Const", "attr": {"value": {"tensor": {"dtype": "DT_FLOAT", "tensorShape": {"dim": [{"size": "32"}]}}}, "dtype": {"type": "DT_FLOAT"}}}, {"name": "FeatureExtractor/MobilenetV2/expanded_conv_5/expand/BatchNorm_Fold/bias", "op": "Const", "attr": {"value": {"tensor": {"dtype": "DT_FLOAT", "tensorShape": {"dim": [{"size": "192"}]}}}, "dtype": {"type": "DT_FLOAT"}}}, {"name": "FeatureExtractor/MobilenetV2/expanded_conv_5/depthwise/BatchNorm_Fold/bias", "op": "Const", "attr": {"value": {"tensor": {"dtype": "DT_FLOAT", "tensorShape": {"dim": [{"size": "192"}]}}}, "dtype": {"type": "DT_FLOAT"}}}, {"name": "FeatureExtractor/MobilenetV2/expanded_conv_5/project/BatchNorm_Fold/bias", "op": "Const", "attr": {"value": {"tensor": {"dtype": "DT_FLOAT", "tensorShape": {"dim": [{"size": "32"}]}}}, "dtype": {"type": "DT_FLOAT"}}}, {"name": "FeatureExtractor/MobilenetV2/expanded_conv_6/expand/BatchNorm_Fold/bias", "op": "Const", "attr": {"value": {"tensor": {"dtype": "DT_FLOAT", "tensorShape": {"dim": [{"size": "192"}]}}}, "dtype": {"type": "DT_FLOAT"}}}, {"name": "FeatureExtractor/MobilenetV2/expanded_conv_6/depthwise/BatchNorm_Fold/bias", "op": "Const", "attr": {"dtype": {"type": "DT_FLOAT"}, "value": {"tensor": {"dtype": "DT_FLOAT", "tensorShape": {"dim": [{"size": "192"}]}}}}}, {"name": "FeatureExtractor/MobilenetV2/expanded_conv_6/project/BatchNorm_Fold/bias", "op": "Const", "attr": {"value": {"tensor": {"dtype": "DT_FLOAT", "tensorShape": {"dim": [{"size": "64"}]}}}, "dtype": {"type": "DT_FLOAT"}}}, {"name": "FeatureExtractor/MobilenetV2/expanded_conv_7/expand/BatchNorm_Fold/bias", "op": "Const", "attr": {"value": {"tensor": {"dtype": "DT_FLOAT", "tensorShape": {"dim": [{"size": "384"}]}}}, "dtype": {"type": "DT_FLOAT"}}}, {"name": "FeatureExtractor/MobilenetV2/expanded_conv_7/depthwise/BatchNorm_Fold/bias", "op": "Const", "attr": {"value": {"tensor": {"dtype": "DT_FLOAT", "tensorShape": {"dim": [{"size": "384"}]}}}, "dtype": {"type": "DT_FLOAT"}}}, {"name": "FeatureExtractor/MobilenetV2/expanded_conv_7/project/BatchNorm_Fold/bias", "op": "Const", "attr": {"value": {"tensor": {"dtype": "DT_FLOAT", "tensorShape": {"dim": [{"size": "64"}]}}}, "dtype": {"type": "DT_FLOAT"}}}, {"name": "FeatureExtractor/MobilenetV2/expanded_conv_8/expand/BatchNorm_Fold/bias", "op": "Const", "attr": {"value": {"tensor": {"dtype": "DT_FLOAT", "tensorShape": {"dim": [{"size": "384"}]}}}, "dtype": {"type": "DT_FLOAT"}}}, {"name": "FeatureExtractor/MobilenetV2/expanded_conv_8/depthwise/BatchNorm_Fold/bias", "op": "Const", "attr": {"value": {"tensor": {"dtype": "DT_FLOAT", "tensorShape": {"dim": [{"size": "384"}]}}}, "dtype": {"type": "DT_FLOAT"}}}, {"name": "FeatureExtractor/MobilenetV2/expanded_conv_8/project/BatchNorm_Fold/bias", "op": "Const", "attr": {"value": {"tensor": {"dtype": "DT_FLOAT", "tensorShape": {"dim": [{"size": "64"}]}}}, "dtype": {"type": "DT_FLOAT"}}}, {"name": "FeatureExtractor/MobilenetV2/expanded_conv_9/expand/BatchNorm_Fold/bias", "op": "Const", "attr": {"value": {"tensor": {"dtype": "DT_FLOAT", "tensorShape": {"dim": [{"size": "384"}]}}}, "dtype": {"type": "DT_FLOAT"}}}, {"name": "FeatureExtractor/MobilenetV2/expanded_conv_9/depthwise/BatchNorm_Fold/bias", "op": "Const", "attr": {"value": {"tensor": {"dtype": "DT_FLOAT", "tensorShape": {"dim": [{"size": "384"}]}}}, "dtype": {"type": "DT_FLOAT"}}}, {"name": "FeatureExtractor/MobilenetV2/expanded_conv_9/project/BatchNorm_Fold/bias", "op": "Const", "attr": {"value": {"tensor": {"dtype": "DT_FLOAT", "tensorShape": {"dim": [{"size": "64"}]}}}, "dtype": {"type": "DT_FLOAT"}}}, {"name": "FeatureExtractor/MobilenetV2/expanded_conv_10/expand/BatchNorm_Fold/bias", "op": "Const", "attr": {"value": {"tensor": {"dtype": "DT_FLOAT", "tensorShape": {"dim": [{"size": "384"}]}}}, "dtype": {"type": "DT_FLOAT"}}}, {"name": "FeatureExtractor/MobilenetV2/expanded_conv_10/depthwise/BatchNorm_Fold/bias", "op": "Const", "attr": {"value": {"tensor": {"dtype": "DT_FLOAT", "tensorShape": {"dim": [{"size": "384"}]}}}, "dtype": {"type": "DT_FLOAT"}}}, {"name": "FeatureExtractor/MobilenetV2/expanded_conv_10/project/BatchNorm_Fold/bias", "op": "Const", "attr": {"value": {"tensor": {"dtype": "DT_FLOAT", "tensorShape": {"dim": [{"size": "96"}]}}}, "dtype": {"type": "DT_FLOAT"}}}, {"name": "FeatureExtractor/MobilenetV2/expanded_conv_11/expand/BatchNorm_Fold/bias", "op": "Const", "attr": {"value": {"tensor": {"dtype": "DT_FLOAT", "tensorShape": {"dim": [{"size": "576"}]}}}, "dtype": {"type": "DT_FLOAT"}}}, {"name": "FeatureExtractor/MobilenetV2/expanded_conv_11/depthwise/BatchNorm_Fold/bias", "op": "Const", "attr": {"value": {"tensor": {"dtype": "DT_FLOAT", "tensorShape": {"dim": [{"size": "576"}]}}}, "dtype": {"type": "DT_FLOAT"}}}, {"name": "FeatureExtractor/MobilenetV2/expanded_conv_11/project/BatchNorm_Fold/bias", "op": "Const", "attr": {"value": {"tensor": {"dtype": "DT_FLOAT", "tensorShape": {"dim": [{"size": "96"}]}}}, "dtype": {"type": "DT_FLOAT"}}}, {"name": "FeatureExtractor/MobilenetV2/expanded_conv_12/expand/BatchNorm_Fold/bias", "op": "Const", "attr": {"value": {"tensor": {"dtype": "DT_FLOAT", "tensorShape": {"dim": [{"size": "576"}]}}}, "dtype": {"type": "DT_FLOAT"}}}, {"name": "FeatureExtractor/MobilenetV2/expanded_conv_12/depthwise/BatchNorm_Fold/bias", "op": "Const", "attr": {"value": {"tensor": {"dtype": "DT_FLOAT", "tensorShape": {"dim": [{"size": "576"}]}}}, "dtype": {"type": "DT_FLOAT"}}}, {"name": "FeatureExtractor/MobilenetV2/expanded_conv_12/project/BatchNorm_Fold/bias", "op": "Const", "attr": {"value": {"tensor": {"dtype": "DT_FLOAT", "tensorShape": {"dim": [{"size": "96"}]}}}, "dtype": {"type": "DT_FLOAT"}}}, {"name": "FeatureExtractor/MobilenetV2/expanded_conv_13/expand/BatchNorm_Fold/bias", "op": "Const", "attr": {"value": {"tensor": {"dtype": "DT_FLOAT", "tensorShape": {"dim": [{"size": "576"}]}}}, "dtype": {"type": "DT_FLOAT"}}}, {"name": "FeatureExtractor/MobilenetV2/expanded_conv_13/depthwise/BatchNorm_Fold/bias", "op": "Const", "attr": {"value": {"tensor": {"dtype": "DT_FLOAT", "tensorShape": {"dim": [{"size": "576"}]}}}, "dtype": {"type": "DT_FLOAT"}}}, {"name": "FeatureExtractor/MobilenetV2/expanded_conv_13/project/BatchNorm_Fold/bias", "op": "Const", "attr": {"value": {"tensor": {"dtype": "DT_FLOAT", "tensorShape": {"dim": [{"size": "160"}]}}}, "dtype": {"type": "DT_FLOAT"}}}, {"name": "FeatureExtractor/MobilenetV2/expanded_conv_14/expand/BatchNorm_Fold/bias", "op": "Const", "attr": {"value": {"tensor": {"dtype": "DT_FLOAT", "tensorShape": {"dim": [{"size": "960"}]}}}, "dtype": {"type": "DT_FLOAT"}}}, {"name": "FeatureExtractor/MobilenetV2/expanded_conv_14/depthwise/BatchNorm_Fold/bias", "op": "Const", "attr": {"value": {"tensor": {"dtype": "DT_FLOAT", "tensorShape": {"dim": [{"size": "960"}]}}}, "dtype": {"type": "DT_FLOAT"}}}, {"name": "FeatureExtractor/MobilenetV2/expanded_conv_14/project/BatchNorm_Fold/bias", "op": "Const", "attr": {"value": {"tensor": {"dtype": "DT_FLOAT", "tensorShape": {"dim": [{"size": "160"}]}}}, "dtype": {"type": "DT_FLOAT"}}}, {"name": "FeatureExtractor/MobilenetV2/expanded_conv_15/expand/BatchNorm_Fold/bias", "op": "Const", "attr": {"value": {"tensor": {"dtype": "DT_FLOAT", "tensorShape": {"dim": [{"size": "960"}]}}}, "dtype": {"type": "DT_FLOAT"}}}, {"name": "FeatureExtractor/MobilenetV2/expanded_conv_15/depthwise/BatchNorm_Fold/bias", "op": "Const", "attr": {"value": {"tensor": {"dtype": "DT_FLOAT", "tensorShape": {"dim": [{"size": "960"}]}}}, "dtype": {"type": "DT_FLOAT"}}}, {"name": "FeatureExtractor/MobilenetV2/expanded_conv_15/project/BatchNorm_Fold/bias", "op": "Const", "attr": {"value": {"tensor": {"dtype": "DT_FLOAT", "tensorShape": {"dim": [{"size": "160"}]}}}, "dtype": {"type": "DT_FLOAT"}}}, {"name": "FeatureExtractor/MobilenetV2/expanded_conv_16/expand/BatchNorm_Fold/bias", "op": "Const", "attr": {"value": {"tensor": {"dtype": "DT_FLOAT", "tensorShape": {"dim": [{"size": "960"}]}}}, "dtype": {"type": "DT_FLOAT"}}}, {"name": "FeatureExtractor/MobilenetV2/expanded_conv_16/depthwise/BatchNorm_Fold/bias", "op": "Const", "attr": {"value": {"tensor": {"dtype": "DT_FLOAT", "tensorShape": {"dim": [{"size": "960"}]}}}, "dtype": {"type": "DT_FLOAT"}}}, {"name": "FeatureExtractor/MobilenetV2/expanded_conv_16/project/BatchNorm_Fold/bias", "op": "Const", "attr": {"value": {"tensor": {"dtype": "DT_FLOAT", "tensorShape": {"dim": [{"size": "320"}]}}}, "dtype": {"type": "DT_FLOAT"}}}, {"name": "FeatureExtractor/MobilenetV2/Conv_1/BatchNorm_Fold/bias", "op": "Const", "attr": {"value": {"tensor": {"dtype": "DT_FLOAT", "tensorShape": {"dim": [{"size": "1280"}]}}}, "dtype": {"type": "DT_FLOAT"}}}, {"name": "FeatureExtractor/MobilenetV2/layer_19_1_Conv2d_2_1x1_256/BatchNorm_Fold/bias", "op": "Const", "attr": {"dtype": {"type": "DT_FLOAT"}, "value": {"tensor": {"dtype": "DT_FLOAT", "tensorShape": {"dim": [{"size": "256"}]}}}}}, {"name": "FeatureExtractor/MobilenetV2/layer_19_2_Conv2d_2_3x3_s2_512/BatchNorm_Fold/bias", "op": "Const", "attr": {"dtype": {"type": "DT_FLOAT"}, "value": {"tensor": {"dtype": "DT_FLOAT", "tensorShape": {"dim": [{"size": "512"}]}}}}}, {"name": "FeatureExtractor/MobilenetV2/layer_19_1_Conv2d_3_1x1_128/BatchNorm_Fold/bias", "op": "Const", "attr": {"value": {"tensor": {"dtype": "DT_FLOAT", "tensorShape": {"dim": [{"size": "128"}]}}}, "dtype": {"type": "DT_FLOAT"}}}, {"name": "FeatureExtractor/MobilenetV2/layer_19_2_Conv2d_3_3x3_s2_256/BatchNorm_Fold/bias", "op": "Const", "attr": {"value": {"tensor": {"dtype": "DT_FLOAT", "tensorShape": {"dim": [{"size": "256"}]}}}, "dtype": {"type": "DT_FLOAT"}}}, {"name": "FeatureExtractor/MobilenetV2/layer_19_1_Conv2d_4_1x1_128/BatchNorm_Fold/bias", "op": "Const", "attr": {"value": {"tensor": {"dtype": "DT_FLOAT", "tensorShape": {"dim": [{"size": "128"}]}}}, "dtype": {"type": "DT_FLOAT"}}}, {"name": "FeatureExtractor/MobilenetV2/layer_19_2_Conv2d_4_3x3_s2_256/BatchNorm_Fold/bias", "op": "Const", "attr": {"value": {"tensor": {"dtype": "DT_FLOAT", "tensorShape": {"dim": [{"size": "256"}]}}}, "dtype": {"type": "DT_FLOAT"}}}, {"name": "FeatureExtractor/MobilenetV2/layer_19_1_Conv2d_5_1x1_64/BatchNorm_Fold/bias", "op": "Const", "attr": {"value": {"tensor": {"dtype": "DT_FLOAT", "tensorShape": {"dim": [{"size": "64"}]}}}, "dtype": {"type": "DT_FLOAT"}}}, {"name": "FeatureExtractor/MobilenetV2/layer_19_2_Conv2d_5_3x3_s2_128/BatchNorm_Fold/bias", "op": "Const", "attr": {"value": {"tensor": {"dtype": "DT_FLOAT", "tensorShape": {"dim": [{"size": "128"}]}}}, "dtype": {"type": "DT_FLOAT"}}}, {"name": "FeatureExtractor/MobilenetV2/expanded_conv_2/project/weights_quant/FakeQuantWithMinMaxVars", "op": "Const", "attr": {"value": {"tensor": {"dtype": "DT_FLOAT", "tensorShape": {"dim": [{"size": "1"}, {"size": "1"}, {"size": "144"}, {"size": "24"}]}}}, "dtype": {"type": "DT_FLOAT"}}}, {"name": "FeatureExtractor/MobilenetV2/expanded_conv_2/project/act_quant/min", "op": "Const", "attr": {"value": {"tensor": {"dtype": "DT_FLOAT", "tensorShape": {}}}, "dtype": {"type": "DT_FLOAT"}}}, {"name": "FeatureExtractor/MobilenetV2/expanded_conv_2/project/act_quant/max", "op": "Const", "attr": {"value": {"tensor": {"dtype": "DT_FLOAT", "tensorShape": {}}}, "dtype": {"type": "DT_FLOAT"}}}, {"name": "FeatureExtractor/MobilenetV2/expanded_conv_2/post_activation_bypass_quant/min", "op": "Const", "attr": {"value": {"tensor": {"dtype": "DT_FLOAT", "tensorShape": {}}}, "dtype": {"type": "DT_FLOAT"}}}, {"name": "BoxPredictor_3/BoxEncodingPredictor/weights_quant/FakeQuantWithMinMaxVars", "op": "Const", "attr": {"value": {"tensor": {"dtype": "DT_FLOAT", "tensorShape": {"dim": [{"size": "1"}, {"size": "1"}, {"size": "256"}, {"size": "24"}]}}}, "dtype": {"type": "DT_FLOAT"}}}, {"name": "FeatureExtractor/MobilenetV2/expanded_conv_2/post_activation_bypass_quant/max", "op": "Const", "attr": {"value": {"tensor": {"dtype": "DT_FLOAT", "tensorShape": {}}}, "dtype": {"type": "DT_FLOAT"}}}, {"name": "FeatureExtractor/MobilenetV2/expanded_conv_4/project/weights_quant/FakeQuantWithMinMaxVars", "op": "Const", "attr": {"value": {"tensor": {"dtype": "DT_FLOAT", "tensorShape": {"dim": [{"size": "1"}, {"size": "1"}, {"size": "192"}, {"size": "32"}]}}}, "dtype": {"type": "DT_FLOAT"}}}, {"name": "FeatureExtractor/MobilenetV2/expanded_conv_4/project/act_quant/min", "op": "Const", "attr": {"value": {"tensor": {"dtype": "DT_FLOAT", "tensorShape": {}}}, "dtype": {"type": "DT_FLOAT"}}}, {"name": "FeatureExtractor/MobilenetV2/expanded_conv_4/project/act_quant/max", "op": "Const", "attr": {"value": {"tensor": {"dtype": "DT_FLOAT", "tensorShape": {}}}, "dtype": {"type": "DT_FLOAT"}}}, {"name": "FeatureExtractor/MobilenetV2/expanded_conv_4/post_activation_bypass_quant/min", "op": "Const", "attr": {"value": {"tensor": {"dtype": "DT_FLOAT", "tensorShape": {}}}, "dtype": {"type": "DT_FLOAT"}}}, {"name": "FeatureExtractor/MobilenetV2/expanded_conv_4/post_activation_bypass_quant/max", "op": "Const", "attr": {"value": {"tensor": {"dtype": "DT_FLOAT", "tensorShape": {}}}, "dtype": {"type": "DT_FLOAT"}}}, {"name": "BoxPredictor_3/BoxEncodingPredictor/act_quant/min", "op": "Const", "attr": {"value": {"tensor": {"dtype": "DT_FLOAT", "tensorShape": {}}}, "dtype": {"type": "DT_FLOAT"}}}, {"name": "FeatureExtractor/MobilenetV2/expanded_conv_5/project/weights_quant/FakeQuantWithMinMaxVars", "op": "Const", "attr": {"value": {"tensor": {"dtype": "DT_FLOAT", "tensorShape": {"dim": [{"size": "1"}, {"size": "1"}, {"size": "192"}, {"size": "32"}]}}}, "dtype": {"type": "DT_FLOAT"}}}, {"name": "FeatureExtractor/MobilenetV2/expanded_conv_5/project/act_quant/min", "op": "Const", "attr": {"value": {"tensor": {"dtype": "DT_FLOAT", "tensorShape": {}}}, "dtype": {"type": "DT_FLOAT"}}}, {"name": "FeatureExtractor/MobilenetV2/expanded_conv_16/expand/weights_quant/FakeQuantWithMinMaxVars", "op": "Const", "attr": {"value": {"tensor": {"dtype": "DT_FLOAT", "tensorShape": {"dim": [{"size": "1"}, {"size": "1"}, {"size": "160"}, {"size": "960"}]}}}, "dtype": {"type": "DT_FLOAT"}}}, {"name": "FeatureExtractor/MobilenetV2/expanded_conv_5/project/act_quant/max", "op": "Const", "attr": {"value": {"tensor": {"dtype": "DT_FLOAT", "tensorShape": {}}}, "dtype": {"type": "DT_FLOAT"}}}, {"name": "FeatureExtractor/MobilenetV2/expanded_conv_5/post_activation_bypass_quant/min", "op": "Const", "attr": {"value": {"tensor": {"dtype": "DT_FLOAT", "tensorShape": {}}}, "dtype": {"type": "DT_FLOAT"}}}, {"name": "FeatureExtractor/MobilenetV2/expanded_conv_5/post_activation_bypass_quant/max", "op": "Const", "attr": {"value": {"tensor": {"dtype": "DT_FLOAT", "tensorShape": {}}}, "dtype": {"type": "DT_FLOAT"}}}, {"name": "BoxPredictor_3/BoxEncodingPredictor/act_quant/max", "op": "Const", "attr": {"value": {"tensor": {"dtype": "DT_FLOAT", "tensorShape": {}}}, "dtype": {"type": "DT_FLOAT"}}}, {"name": "FeatureExtractor/MobilenetV2/expanded_conv_7/project/weights_quant/FakeQuantWithMinMaxVars", "op": "Const", "attr": {"value": {"tensor": {"dtype": "DT_FLOAT", "tensorShape": {"dim": [{"size": "1"}, {"size": "1"}, {"size": "384"}, {"size": "64"}]}}}, "dtype": {"type": "DT_FLOAT"}}}, {"name": "FeatureExtractor/MobilenetV2/expanded_conv_7/project/act_quant/min", "op": "Const", "attr": {"value": {"tensor": {"dtype": "DT_FLOAT", "tensorShape": {}}}, "dtype": {"type": "DT_FLOAT"}}}, {"name": "FeatureExtractor/MobilenetV2/expanded_conv_7/project/act_quant/max", "op": "Const", "attr": {"value": {"tensor": {"dtype": "DT_FLOAT", "tensorShape": {}}}, "dtype": {"type": "DT_FLOAT"}}}, {"name": "FeatureExtractor/MobilenetV2/expanded_conv_7/post_activation_bypass_quant/min", "op": "Const", "attr": {"value": {"tensor": {"dtype": "DT_FLOAT", "tensorShape": {}}}, "dtype": {"type": "DT_FLOAT"}}}, {"name": "FeatureExtractor/MobilenetV2/expanded_conv_7/post_activation_bypass_quant/max", "op": "Const", "attr": {"value": {"tensor": {"dtype": "DT_FLOAT", "tensorShape": {}}}, "dtype": {"type": "DT_FLOAT"}}}, {"name": "FeatureExtractor/MobilenetV2/expanded_conv_8/project/weights_quant/FakeQuantWithMinMaxVars", "op": "Const", "attr": {"value": {"tensor": {"dtype": "DT_FLOAT", "tensorShape": {"dim": [{"size": "1"}, {"size": "1"}, {"size": "384"}, {"size": "64"}]}}}, "dtype": {"type": "DT_FLOAT"}}}, {"name": "FeatureExtractor/MobilenetV2/expanded_conv_8/project/act_quant/min", "op": "Const", "attr": {"value": {"tensor": {"dtype": "DT_FLOAT", "tensorShape": {}}}, "dtype": {"type": "DT_FLOAT"}}}, {"name": "FeatureExtractor/MobilenetV2/expanded_conv_8/project/act_quant/max", "op": "Const", "attr": {"value": {"tensor": {"dtype": "DT_FLOAT", "tensorShape": {}}}, "dtype": {"type": "DT_FLOAT"}}}, {"name": "FeatureExtractor/MobilenetV2/expanded_conv_8/post_activation_bypass_quant/min", "op": "Const", "attr": {"value": {"tensor": {"dtype": "DT_FLOAT", "tensorShape": {}}}, "dtype": {"type": "DT_FLOAT"}}}, {"name": "FeatureExtractor/MobilenetV2/expanded_conv_16/depthwise/weights_quant/FakeQuantWithMinMaxVars", "op": "Const", "attr": {"value": {"tensor": {"dtype": "DT_FLOAT", "tensorShape": {"dim": [{"size": "3"}, {"size": "3"}, {"size": "960"}, {"size": "1"}]}}}, "dtype": {"type": "DT_FLOAT"}}}, {"name": "FeatureExtractor/MobilenetV2/expanded_conv_8/post_activation_bypass_quant/max", "op": "Const", "attr": {"value": {"tensor": {"dtype": "DT_FLOAT", "tensorShape": {}}}, "dtype": {"type": "DT_FLOAT"}}}, {"name": "FeatureExtractor/MobilenetV2/expanded_conv_9/project/weights_quant/FakeQuantWithMinMaxVars", "op": "Const", "attr": {"value": {"tensor": {"dtype": "DT_FLOAT", "tensorShape": {"dim": [{"size": "1"}, {"size": "1"}, {"size": "384"}, {"size": "64"}]}}}, "dtype": {"type": "DT_FLOAT"}}}, {"name": "FeatureExtractor/MobilenetV2/expanded_conv_9/project/act_quant/min", "op": "Const", "attr": {"value": {"tensor": {"dtype": "DT_FLOAT", "tensorShape": {}}}, "dtype": {"type": "DT_FLOAT"}}}, {"name": "FeatureExtractor/MobilenetV2/expanded_conv_9/project/act_quant/max", "op": "Const", "attr": {"value": {"tensor": {"dtype": "DT_FLOAT", "tensorShape": {}}}, "dtype": {"type": "DT_FLOAT"}}}, {"name": "FeatureExtractor/MobilenetV2/expanded_conv_9/post_activation_bypass_quant/min", "op": "Const", "attr": {"value": {"tensor": {"dtype": "DT_FLOAT", "tensorShape": {}}}, "dtype": {"type": "DT_FLOAT"}}}, {"name": "FeatureExtractor/MobilenetV2/expanded_conv_9/post_activation_bypass_quant/max", "op": "Const", "attr": {"value": {"tensor": {"dtype": "DT_FLOAT", "tensorShape": {}}}, "dtype": {"type": "DT_FLOAT"}}}, {"name": "FeatureExtractor/MobilenetV2/expanded_conv_11/project/weights_quant/FakeQuantWithMinMaxVars", "op": "Const", "attr": {"dtype": {"type": "DT_FLOAT"}, "value": {"tensor": {"dtype": "DT_FLOAT", "tensorShape": {"dim": [{"size": "1"}, {"size": "1"}, {"size": "576"}, {"size": "96"}]}}}}}, {"name": "FeatureExtractor/MobilenetV2/expanded_conv_11/project/act_quant/min", "op": "Const", "attr": {"value": {"tensor": {"dtype": "DT_FLOAT", "tensorShape": {}}}, "dtype": {"type": "DT_FLOAT"}}}, {"name": "FeatureExtractor/MobilenetV2/expanded_conv_11/project/act_quant/max", "op": "Const", "attr": {"value": {"tensor": {"dtype": "DT_FLOAT", "tensorShape": {}}}, "dtype": {"type": "DT_FLOAT"}}}, {"name": "BoxPredictor_3/ClassPredictor/weights_quant/FakeQuantWithMinMaxVars", "op": "Const", "attr": {"value": {"tensor": {"dtype": "DT_FLOAT", "tensorShape": {"dim": [{"size": "1"}, {"size": "1"}, {"size": "256"}, {"size": "546"}]}}}, "dtype": {"type": "DT_FLOAT"}}}, {"name": "FeatureExtractor/MobilenetV2/expanded_conv_11/post_activation_bypass_quant/min", "op": "Const", "attr": {"value": {"tensor": {"dtype": "DT_FLOAT", "tensorShape": {}}}, "dtype": {"type": "DT_FLOAT"}}}, {"name": "FeatureExtractor/MobilenetV2/expanded_conv_11/post_activation_bypass_quant/max", "op": "Const", "attr": {"value": {"tensor": {"dtype": "DT_FLOAT", "tensorShape": {}}}, "dtype": {"type": "DT_FLOAT"}}}, {"name": "FeatureExtractor/MobilenetV2/expanded_conv_16/project/weights_quant/FakeQuantWithMinMaxVars", "op": "Const", "attr": {"value": {"tensor": {"dtype": "DT_FLOAT", "tensorShape": {"dim": [{"size": "1"}, {"size": "1"}, {"size": "960"}, {"size": "320"}]}}}, "dtype": {"type": "DT_FLOAT"}}}, {"name": "FeatureExtractor/MobilenetV2/expanded_conv_12/project/weights_quant/FakeQuantWithMinMaxVars", "op": "Const", "attr": {"value": {"tensor": {"dtype": "DT_FLOAT", "tensorShape": {"dim": [{"size": "1"}, {"size": "1"}, {"size": "576"}, {"size": "96"}]}}}, "dtype": {"type": "DT_FLOAT"}}}, {"name": "FeatureExtractor/MobilenetV2/expanded_conv_12/project/act_quant/min", "op": "Const", "attr": {"value": {"tensor": {"dtype": "DT_FLOAT", "tensorShape": {}}}, "dtype": {"type": "DT_FLOAT"}}}, {"name": "FeatureExtractor/MobilenetV2/expanded_conv_12/project/act_quant/max", "op": "Const", "attr": {"value": {"tensor": {"dtype": "DT_FLOAT", "tensorShape": {}}}, "dtype": {"type": "DT_FLOAT"}}}, {"name": "FeatureExtractor/MobilenetV2/expanded_conv_12/post_activation_bypass_quant/min", "op": "Const", "attr": {"value": {"tensor": {"dtype": "DT_FLOAT", "tensorShape": {}}}, "dtype": {"type": "DT_FLOAT"}}}, {"name": "FeatureExtractor/MobilenetV2/expanded_conv_16/project/act_quant/min", "op": "Const", "attr": {"value": {"tensor": {"dtype": "DT_FLOAT", "tensorShape": {}}}, "dtype": {"type": "DT_FLOAT"}}}, {"name": "FeatureExtractor/MobilenetV2/expanded_conv_12/post_activation_bypass_quant/max", "op": "Const", "attr": {"value": {"tensor": {"dtype": "DT_FLOAT", "tensorShape": {}}}, "dtype": {"type": "DT_FLOAT"}}}, {"name": "BoxPredictor_3/ClassPredictor/act_quant/min", "op": "Const", "attr": {"value": {"tensor": {"dtype": "DT_FLOAT", "tensorShape": {}}}, "dtype": {"type": "DT_FLOAT"}}}, {"name": "FeatureExtractor/MobilenetV2/expanded_conv_16/project/act_quant/max", "op": "Const", "attr": {"value": {"tensor": {"dtype": "DT_FLOAT", "tensorShape": {}}}, "dtype": {"type": "DT_FLOAT"}}}, {"name": "BoxPredictor_4/ClassPredictor/weights_quant/FakeQuantWithMinMaxVars", "op": "Const", "attr": {"value": {"tensor": {"dtype": "DT_FLOAT", "tensorShape": {"dim": [{"size": "1"}, {"size": "1"}, {"size": "256"}, {"size": "546"}]}}}, "dtype": {"type": "DT_FLOAT"}}}, {"name": "FeatureExtractor/MobilenetV2/expanded_conv_14/project/weights_quant/FakeQuantWithMinMaxVars", "op": "Const", "attr": {"value": {"tensor": {"dtype": "DT_FLOAT", "tensorShape": {"dim": [{"size": "1"}, {"size": "1"}, {"size": "960"}, {"size": "160"}]}}}, "dtype": {"type": "DT_FLOAT"}}}, {"name": "FeatureExtractor/MobilenetV2/expanded_conv_14/project/act_quant/min", "op": "Const", "attr": {"value": {"tensor": {"dtype": "DT_FLOAT", "tensorShape": {}}}, "dtype": {"type": "DT_FLOAT"}}}, {"name": "FeatureExtractor/MobilenetV2/expanded_conv_14/project/act_quant/max", "op": "Const", "attr": {"value": {"tensor": {"dtype": "DT_FLOAT", "tensorShape": {}}}, "dtype": {"type": "DT_FLOAT"}}}, {"name": "BoxPredictor_3/ClassPredictor/act_quant/max", "op": "Const", "attr": {"value": {"tensor": {"dtype": "DT_FLOAT", "tensorShape": {}}}, "dtype": {"type": "DT_FLOAT"}}}, {"name": "FeatureExtractor/MobilenetV2/expanded_conv_14/post_activation_bypass_quant/min", "op": "Const", "attr": {"value": {"tensor": {"dtype": "DT_FLOAT", "tensorShape": {}}}, "dtype": {"type": "DT_FLOAT"}}}, {"name": "FeatureExtractor/MobilenetV2/expanded_conv_14/post_activation_bypass_quant/max", "op": "Const", "attr": {"value": {"tensor": {"dtype": "DT_FLOAT", "tensorShape": {}}}, "dtype": {"type": "DT_FLOAT"}}}, {"name": "FeatureExtractor/MobilenetV2/expanded_conv_15/project/weights_quant/FakeQuantWithMinMaxVars", "op": "Const", "attr": {"value": {"tensor": {"dtype": "DT_FLOAT", "tensorShape": {"dim": [{"size": "1"}, {"size": "1"}, {"size": "960"}, {"size": "160"}]}}}, "dtype": {"type": "DT_FLOAT"}}}, {"name": "FeatureExtractor/MobilenetV2/expanded_conv_15/project/act_quant/min", "op": "Const", "attr": {"value": {"tensor": {"dtype": "DT_FLOAT", "tensorShape": {}}}, "dtype": {"type": "DT_FLOAT"}}}, {"name": "FeatureExtractor/MobilenetV2/Conv_1/weights_quant/FakeQuantWithMinMaxVars", "op": "Const", "attr": {"value": {"tensor": {"dtype": "DT_FLOAT", "tensorShape": {"dim": [{"size": "1"}, {"size": "1"}, {"size": "320"}, {"size": "1280"}]}}}, "dtype": {"type": "DT_FLOAT"}}}, {"name": "FeatureExtractor/MobilenetV2/expanded_conv_15/project/act_quant/max", "op": "Const", "attr": {"value": {"tensor": {"dtype": "DT_FLOAT", "tensorShape": {}}}, "dtype": {"type": "DT_FLOAT"}}}, {"name": "FeatureExtractor/MobilenetV2/expanded_conv_15/post_activation_bypass_quant/min", "op": "Const", "attr": {"value": {"tensor": {"dtype": "DT_FLOAT", "tensorShape": {}}}, "dtype": {"type": "DT_FLOAT"}}}, {"name": "FeatureExtractor/MobilenetV2/expanded_conv_15/post_activation_bypass_quant/max", "op": "Const", "attr": {"value": {"tensor": {"dtype": "DT_FLOAT", "tensorShape": {}}}, "dtype": {"type": "DT_FLOAT"}}}, {"name": "FeatureExtractor/MobilenetV2/Conv/weights_quant/FakeQuantWithMinMaxVars", "op": "Const", "attr": {"value": {"tensor": {"dtype": "DT_FLOAT", "tensorShape": {"dim": [{"size": "3"}, {"size": "3"}, {"size": "3"}, {"size": "32"}]}}}, "dtype": {"type": "DT_FLOAT"}}}, {"name": "FeatureExtractor/MobilenetV2/expanded_conv/depthwise/weights_quant/FakeQuantWithMinMaxVars", "op": "Const", "attr": {"value": {"tensor": {"dtype": "DT_FLOAT", "tensorShape": {"dim": [{"size": "3"}, {"size": "3"}, {"size": "32"}, {"size": "1"}]}}}, "dtype": {"type": "DT_FLOAT"}}}, {"name": "FeatureExtractor/MobilenetV2/expanded_conv/project/weights_quant/FakeQuantWithMinMaxVars", "op": "Const", "attr": {"value": {"tensor": {"dtype": "DT_FLOAT", "tensorShape": {"dim": [{"size": "1"}, {"size": "1"}, {"size": "32"}, {"size": "16"}]}}}, "dtype": {"type": "DT_FLOAT"}}}, {"name": "FeatureExtractor/MobilenetV2/expanded_conv/project/act_quant/min", "op": "Const", "attr": {"value": {"tensor": {"dtype": "DT_FLOAT", "tensorShape": {}}}, "dtype": {"type": "DT_FLOAT"}}}, {"name": "FeatureExtractor/MobilenetV2/expanded_conv/project/act_quant/max", "op": "Const", "attr": {"value": {"tensor": {"dtype": "DT_FLOAT", "tensorShape": {}}}, "dtype": {"type": "DT_FLOAT"}}}, {"name": "FeatureExtractor/MobilenetV2/layer_19_1_Conv2d_2_1x1_256/weights_quant/FakeQuantWithMinMaxVars", "op": "Const", "attr": {"value": {"tensor": {"dtype": "DT_FLOAT", "tensorShape": {"dim": [{"size": "1"}, {"size": "1"}, {"size": "1280"}, {"size": "256"}]}}}, "dtype": {"type": "DT_FLOAT"}}}, {"name": "FeatureExtractor/MobilenetV2/expanded_conv_1/expand/weights_quant/FakeQuantWithMinMaxVars", "op": "Const", "attr": {"value": {"tensor": {"dtype": "DT_FLOAT", "tensorShape": {"dim": [{"size": "1"}, {"size": "1"}, {"size": "16"}, {"size": "96"}]}}}, "dtype": {"type": "DT_FLOAT"}}}, {"name": "BoxPredictor_4/ClassPredictor/act_quant/min", "op": "Const", "attr": {"value": {"tensor": {"dtype": "DT_FLOAT", "tensorShape": {}}}, "dtype": {"type": "DT_FLOAT"}}}, {"name": "BoxPredictor_4/BoxEncodingPredictor/weights_quant/FakeQuantWithMinMaxVars", "op": "Const", "attr": {"value": {"tensor": {"dtype": "DT_FLOAT", "tensorShape": {"dim": [{"size": "1"}, {"size": "1"}, {"size": "256"}, {"size": "24"}]}}}, "dtype": {"type": "DT_FLOAT"}}}, {"name": "FeatureExtractor/MobilenetV2/expanded_conv_1/depthwise/weights_quant/FakeQuantWithMinMaxVars", "op": "Const", "attr": {"value": {"tensor": {"dtype": "DT_FLOAT", "tensorShape": {"dim": [{"size": "3"}, {"size": "3"}, {"size": "96"}, {"size": "1"}]}}}, "dtype": {"type": "DT_FLOAT"}}}, {"name": "FeatureExtractor/MobilenetV2/layer_19_2_Conv2d_2_3x3_s2_512/weights_quant/FakeQuantWithMinMaxVars", "op": "Const", "attr": {"value": {"tensor": {"dtype": "DT_FLOAT", "tensorShape": {"dim": [{"size": "3"}, {"size": "3"}, {"size": "256"}, {"size": "512"}]}}}, "dtype": {"type": "DT_FLOAT"}}}, {"name": "FeatureExtractor/MobilenetV2/expanded_conv_1/project/weights_quant/FakeQuantWithMinMaxVars", "op": "Const", "attr": {"value": {"tensor": {"dtype": "DT_FLOAT", "tensorShape": {"dim": [{"size": "1"}, {"size": "1"}, {"size": "96"}, {"size": "24"}]}}}, "dtype": {"type": "DT_FLOAT"}}}, {"name": "FeatureExtractor/MobilenetV2/expanded_conv_1/project/act_quant/min", "op": "Const", "attr": {"value": {"tensor": {"dtype": "DT_FLOAT", "tensorShape": {}}}, "dtype": {"type": "DT_FLOAT"}}}, {"name": "FeatureExtractor/MobilenetV2/expanded_conv_1/project/act_quant/max", "op": "Const", "attr": {"value": {"tensor": {"dtype": "DT_FLOAT", "tensorShape": {}}}, "dtype": {"type": "DT_FLOAT"}}}, {"name": "BoxPredictor_4/BoxEncodingPredictor/act_quant/min", "op": "Const", "attr": {"value": {"tensor": {"dtype": "DT_FLOAT", "tensorShape": {}}}, "dtype": {"type": "DT_FLOAT"}}}, {"name": "FeatureExtractor/MobilenetV2/expanded_conv_2/expand/weights_quant/FakeQuantWithMinMaxVars", "op": "Const", "attr": {"value": {"tensor": {"dtype": "DT_FLOAT", "tensorShape": {"dim": [{"size": "1"}, {"size": "1"}, {"size": "24"}, {"size": "144"}]}}}, "dtype": {"type": "DT_FLOAT"}}}, {"name": "FeatureExtractor/MobilenetV2/expanded_conv_2/depthwise/weights_quant/FakeQuantWithMinMaxVars", "op": "Const", "attr": {"value": {"tensor": {"dtype": "DT_FLOAT", "tensorShape": {"dim": [{"size": "3"}, {"size": "3"}, {"size": "144"}, {"size": "1"}]}}}, "dtype": {"type": "DT_FLOAT"}}}, {"name": "BoxPredictor_4/BoxEncodingPredictor/act_quant/max", "op": "Const", "attr": {"value": {"tensor": {"dtype": "DT_FLOAT", "tensorShape": {}}}, "dtype": {"type": "DT_FLOAT"}}}, {"name": "FeatureExtractor/MobilenetV2/layer_19_1_Conv2d_3_1x1_128/weights_quant/FakeQuantWithMinMaxVars", "op": "Const", "attr": {"value": {"tensor": {"dtype": "DT_FLOAT", "tensorShape": {"dim": [{"size": "1"}, {"size": "1"}, {"size": "512"}, {"size": "128"}]}}}, "dtype": {"type": "DT_FLOAT"}}}, {"name": "FeatureExtractor/MobilenetV2/expanded_conv_3/expand/weights_quant/FakeQuantWithMinMaxVars", "op": "Const", "attr": {"value": {"tensor": {"dtype": "DT_FLOAT", "tensorShape": {"dim": [{"size": "1"}, {"size": "1"}, {"size": "24"}, {"size": "144"}]}}}, "dtype": {"type": "DT_FLOAT"}}}, {"name": "FeatureExtractor/MobilenetV2/layer_19_1_Conv2d_3_1x1_128/act_quant/max", "op": "Const", "attr": {"value": {"tensor": {"dtype": "DT_FLOAT", "tensorShape": {}}}, "dtype": {"type": "DT_FLOAT"}}}, {"name": "FeatureExtractor/MobilenetV2/expanded_conv_3/depthwise/weights_quant/FakeQuantWithMinMaxVars", "op": "Const", "attr": {"value": {"tensor": {"dtype": "DT_FLOAT", "tensorShape": {"dim": [{"size": "3"}, {"size": "3"}, {"size": "144"}, {"size": "1"}]}}}, "dtype": {"type": "DT_FLOAT"}}}, {"name": "FeatureExtractor/MobilenetV2/expanded_conv_3/project/weights_quant/FakeQuantWithMinMaxVars", "op": "Const", "attr": {"value": {"tensor": {"dtype": "DT_FLOAT", "tensorShape": {"dim": [{"size": "1"}, {"size": "1"}, {"size": "144"}, {"size": "32"}]}}}, "dtype": {"type": "DT_FLOAT"}}}, {"name": "FeatureExtractor/MobilenetV2/expanded_conv_3/project/act_quant/min", "op": "Const", "attr": {"value": {"tensor": {"dtype": "DT_FLOAT", "tensorShape": {}}}, "dtype": {"type": "DT_FLOAT"}}}, {"name": "FeatureExtractor/MobilenetV2/layer_19_2_Conv2d_3_3x3_s2_256/weights_quant/FakeQuantWithMinMaxVars", "op": "Const", "attr": {"value": {"tensor": {"dtype": "DT_FLOAT", "tensorShape": {"dim": [{"size": "3"}, {"size": "3"}, {"size": "128"}, {"size": "256"}]}}}, "dtype": {"type": "DT_FLOAT"}}}, {"name": "FeatureExtractor/MobilenetV2/expanded_conv_3/project/act_quant/max", "op": "Const", "attr": {"value": {"tensor": {"dtype": "DT_FLOAT", "tensorShape": {}}}, "dtype": {"type": "DT_FLOAT"}}}, {"name": "FeatureExtractor/MobilenetV2/expanded_conv_4/expand/weights_quant/FakeQuantWithMinMaxVars", "op": "Const", "attr": {"value": {"tensor": {"dtype": "DT_FLOAT", "tensorShape": {"dim": [{"size": "1"}, {"size": "1"}, {"size": "32"}, {"size": "192"}]}}}, "dtype": {"type": "DT_FLOAT"}}}, {"name": "FeatureExtractor/MobilenetV2/expanded_conv_4/depthwise/weights_quant/FakeQuantWithMinMaxVars", "op": "Const", "attr": {"value": {"tensor": {"dtype": "DT_FLOAT", "tensorShape": {"dim": [{"size": "3"}, {"size": "3"}, {"size": "192"}, {"size": "1"}]}}}, "dtype": {"type": "DT_FLOAT"}}}, {"name": "FeatureExtractor/MobilenetV2/expanded_conv_5/expand/weights_quant/FakeQuantWithMinMaxVars", "op": "Const", "attr": {"value": {"tensor": {"dtype": "DT_FLOAT", "tensorShape": {"dim": [{"size": "1"}, {"size": "1"}, {"size": "32"}, {"size": "192"}]}}}, "dtype": {"type": "DT_FLOAT"}}}, {"name": "FeatureExtractor/MobilenetV2/layer_19_1_Conv2d_4_1x1_128/weights_quant/FakeQuantWithMinMaxVars", "op": "Const", "attr": {"value": {"tensor": {"dtype": "DT_FLOAT", "tensorShape": {"dim": [{"size": "1"}, {"size": "1"}, {"size": "256"}, {"size": "128"}]}}}, "dtype": {"type": "DT_FLOAT"}}}, {"name": "FeatureExtractor/MobilenetV2/expanded_conv_5/depthwise/weights_quant/FakeQuantWithMinMaxVars", "op": "Const", "attr": {"value": {"tensor": {"dtype": "DT_FLOAT", "tensorShape": {"dim": [{"size": "3"}, {"size": "3"}, {"size": "192"}, {"size": "1"}]}}}, "dtype": {"type": "DT_FLOAT"}}}, {"name": "FeatureExtractor/MobilenetV2/layer_19_1_Conv2d_4_1x1_128/act_quant/max", "op": "Const", "attr": {"value": {"tensor": {"dtype": "DT_FLOAT", "tensorShape": {}}}, "dtype": {"type": "DT_FLOAT"}}}, {"name": "FeatureExtractor/MobilenetV2/expanded_conv_6/expand/weights_quant/FakeQuantWithMinMaxVars", "op": "Const", "attr": {"value": {"tensor": {"dtype": "DT_FLOAT", "tensorShape": {"dim": [{"size": "1"}, {"size": "1"}, {"size": "32"}, {"size": "192"}]}}}, "dtype": {"type": "DT_FLOAT"}}}, {"name": "FeatureExtractor/MobilenetV2/layer_19_2_Conv2d_4_3x3_s2_256/weights_quant/FakeQuantWithMinMaxVars", "op": "Const", "attr": {"value": {"tensor": {"dtype": "DT_FLOAT", "tensorShape": {"dim": [{"size": "3"}, {"size": "3"}, {"size": "128"}, {"size": "256"}]}}}, "dtype": {"type": "DT_FLOAT"}}}, {"name": "FeatureExtractor/MobilenetV2/expanded_conv_6/depthwise/weights_quant/FakeQuantWithMinMaxVars", "op": "Const", "attr": {"value": {"tensor": {"dtype": "DT_FLOAT", "tensorShape": {"dim": [{"size": "3"}, {"size": "3"}, {"size": "192"}, {"size": "1"}]}}}, "dtype": {"type": "DT_FLOAT"}}}, {"name": "FeatureExtractor/MobilenetV2/expanded_conv_6/project/weights_quant/FakeQuantWithMinMaxVars", "op": "Const", "attr": {"value": {"tensor": {"dtype": "DT_FLOAT", "tensorShape": {"dim": [{"size": "1"}, {"size": "1"}, {"size": "192"}, {"size": "64"}]}}}, "dtype": {"type": "DT_FLOAT"}}}, {"name": "FeatureExtractor/MobilenetV2/expanded_conv_6/project/act_quant/min", "op": "Const", "attr": {"value": {"tensor": {"dtype": "DT_FLOAT", "tensorShape": {}}}, "dtype": {"type": "DT_FLOAT"}}}, {"name": "FeatureExtractor/MobilenetV2/expanded_conv_6/project/act_quant/max", "op": "Const", "attr": {"value": {"tensor": {"dtype": "DT_FLOAT", "tensorShape": {}}}, "dtype": {"type": "DT_FLOAT"}}}, {"name": "ConstantFolding/Postprocessor/Decode/get_center_coordinates_and_sizes/truediv_1_recip", "op": "Const", "attr": {"value": {"tensor": {"dtype": "DT_FLOAT", "tensorShape": {}}}, "dtype": {"type": "DT_FLOAT"}}}, {"name": "ConstantFolding/Postprocessor/Decode/truediv_recip", "op": "Const", "attr": {"value": {"tensor": {"dtype": "DT_FLOAT", "tensorShape": {}}}, "dtype": {"type": "DT_FLOAT"}}}, {"name": "ConstantFolding/Postprocessor/Decode/truediv_2_recip", "op": "Const", "attr": {"value": {"tensor": {"dtype": "DT_FLOAT", "tensorShape": {}}}, "dtype": {"type": "DT_FLOAT"}}}, {"name": "Postprocessor/ExpandDims", "op": "Const", "attr": {"value": {"tensor": {"dtype": "DT_FLOAT", "tensorShape": {"dim": [{"size": "1"}, {"size": "1917"}, {"size": "4"}]}}}, "dtype": {"type": "DT_FLOAT"}}}, {"name": "Cast", "op": "Cast", "input": ["image_tensor"], "attr": {"DstT": {"type": "DT_FLOAT"}, "SrcT": {"type": "DT_UINT8"}, "Truncate": {"b": false}}}, {"name": "Preprocessor/map/while/Enter_1", "op": "Enter", "input": ["Preprocessor/map/TensorArrayUnstack/range/start"], "attr": {"T": {"type": "DT_INT32"}, "is_constant": {"b": false}, "parallel_iterations": {"i": "32"}, "frame_name": {"s": "UHJlcHJvY2Vzc29yL21hcC93aGlsZS93aGlsZV9jb250ZXh0"}}}, {"name": "Preprocessor/map/while/Enter", "op": "Enter", "input": ["Preprocessor/map/TensorArrayUnstack/range/start"], "attr": {"T": {"type": "DT_INT32"}, "is_constant": {"b": false}, "parallel_iterations": {"i": "32"}, "frame_name": {"s": "UHJlcHJvY2Vzc29yL21hcC93aGlsZS93aGlsZV9jb250ZXh0"}}}, {"name": "Preprocessor/map/Shape", "op": "Shape", "input": ["Cast"], "attr": {"T": {"type": "DT_FLOAT"}, "out_type": {"type": "DT_INT32"}}}, {"name": "Preprocessor/map/while/Merge_1", "op": "Merge", "input": ["Preprocessor/map/while/Enter_1", "Preprocessor/map/while/NextIteration_1"], "attr": {"N": {"i": "2"}, "T": {"type": "DT_INT32"}}}, {"name": "Preprocessor/map/while/Merge", "op": "Merge", "input": ["Preprocessor/map/while/Enter", "Preprocessor/map/while/NextIteration"], "attr": {"T": {"type": "DT_INT32"}, "N": {"i": "2"}}}, {"name": "Preprocessor/map/strided_slice", "op": "StridedSlice", "input": ["Preprocessor/map/Shape", "Preprocessor/map/strided_slice/stack", "Preprocessor/map/strided_slice/stack_1", "Preprocessor/map/strided_slice/stack_1"], "attr": {"shrink_axis_mask": {"i": "1"}, "ellipsis_mask": {"i": "0"}, "begin_mask": {"i": "0"}, "new_axis_mask": {"i": "0"}, "end_mask": {"i": "0"}, "T": {"type": "DT_INT32"}, "Index": {"type": "DT_INT32"}}}, {"name": "Preprocessor/map/TensorArray", "op": "TensorArrayV3", "input": ["Preprocessor/map/strided_slice"], "attr": {"element_shape": {"shape": {"unknownRank": true}}, "clear_after_read": {"b": true}, "dynamic_size": {"b": false}, "identical_element_shapes": {"b": true}, "tensor_array_name": {"s": ""}, "dtype": {"type": "DT_FLOAT"}}}, {"name": "Preprocessor/map/TensorArray_1", "op": "TensorArrayV3", "input": ["Preprocessor/map/strided_slice"], "attr": {"identical_element_shapes": {"b": true}, "tensor_array_name": {"s": ""}, "dtype": {"type": "DT_FLOAT"}, "element_shape": {"shape": {"unknownRank": true}}, "dynamic_size": {"b": false}, "clear_after_read": {"b": true}}}, {"name": "Preprocessor/map/while/Less/Enter", "op": "Enter", "input": ["Preprocessor/map/strided_slice"], "attr": {"is_constant": {"b": true}, "parallel_iterations": {"i": "32"}, "frame_name": {"s": "UHJlcHJvY2Vzc29yL21hcC93aGlsZS93aGlsZV9jb250ZXh0"}, "T": {"type": "DT_INT32"}}}, {"name": "Preprocessor/map/TensorArrayUnstack/range", "op": "Range", "input": ["Preprocessor/map/TensorArrayUnstack/range/start", "Preprocessor/map/strided_slice", "Preprocessor/map/TensorArrayUnstack/range/delta"], "attr": {"Tidx": {"type": "DT_INT32"}}}, {"name": "Preprocessor/map/while/TensorArrayReadV3/Enter", "op": "Enter", "input": ["Preprocessor/map/TensorArray"], "attr": {"is_constant": {"b": true}, "parallel_iterations": {"i": "32"}, "frame_name": {"s": "UHJlcHJvY2Vzc29yL21hcC93aGlsZS93aGlsZV9jb250ZXh0"}, "T": {"type": "DT_RESOURCE"}}}, {"name": "Preprocessor/map/while/TensorArrayWrite/TensorArrayWriteV3/Enter", "op": "Enter", "input": ["Preprocessor/map/TensorArray_1"], "attr": {"T": {"type": "DT_RESOURCE"}, "is_constant": {"b": true}, "parallel_iterations": {"i": "32"}, "frame_name": {"s": "UHJlcHJvY2Vzc29yL21hcC93aGlsZS93aGlsZV9jb250ZXh0"}}}, {"name": "Preprocessor/map/while/Enter_2", "op": "Enter", "input": ["Preprocessor/map/TensorArray_1:1"], "attr": {"T": {"type": "DT_FLOAT"}, "is_constant": {"b": false}, "parallel_iterations": {"i": "32"}, "frame_name": {"s": "UHJlcHJvY2Vzc29yL21hcC93aGlsZS93aGlsZV9jb250ZXh0"}}}, {"name": "Preprocessor/map/while/Less_1", "op": "Less", "input": ["Preprocessor/map/while/Merge_1", "Preprocessor/map/while/Less/Enter"], "attr": {"T": {"type": "DT_INT32"}}}, {"name": "Preprocessor/map/while/Less", "op": "Less", "input": ["Preprocessor/map/while/Merge", "Preprocessor/map/while/Less/Enter"], "attr": {"T": {"type": "DT_INT32"}}}, {"name": "Preprocessor/map/TensorArrayUnstack/TensorArrayScatter/TensorArrayScatterV3", "op": "TensorArrayScatterV3", "input": ["Preprocessor/map/TensorArray", "Preprocessor/map/TensorArrayUnstack/range", "Cast", "Preprocessor/map/TensorArray:1"], "attr": {"T": {"type": "DT_FLOAT"}}}, {"name": "Preprocessor/map/while/Merge_2", "op": "Merge", "input": ["Preprocessor/map/while/Enter_2", "Preprocessor/map/while/NextIteration_2"], "attr": {"T": {"type": "DT_FLOAT"}, "N": {"i": "2"}}}, {"name": "Preprocessor/map/while/LogicalAnd", "op": "LogicalAnd", "input": ["Preprocessor/map/while/Less", "Preprocessor/map/while/Less_1"]}, {"name": "Preprocessor/map/while/TensorArrayReadV3/Enter_1", "op": "Enter", "input": ["Preprocessor/map/TensorArrayUnstack/TensorArrayScatter/TensorArrayScatterV3"], "attr": {"is_constant": {"b": true}, "parallel_iterations": {"i": "32"}, "frame_name": {"s": "UHJlcHJvY2Vzc29yL21hcC93aGlsZS93aGlsZV9jb250ZXh0"}, "T": {"type": "DT_FLOAT"}}}, {"name": "Preprocessor/map/while/LoopCond", "op": "LoopCond", "input": ["Preprocessor/map/while/LogicalAnd"]}, {"name": "Preprocessor/map/while/Switch_1", "op": "Switch", "input": ["Preprocessor/map/while/Merge_1", "Preprocessor/map/while/LoopCond"], "attr": {"T": {"type": "DT_INT32"}}}, {"name": "Preprocessor/map/while/Switch_2", "op": "Switch", "input": ["Preprocessor/map/while/Merge_2", "Preprocessor/map/while/LoopCond"], "attr": {"T": {"type": "DT_FLOAT"}}}, {"name": "Preprocessor/map/while/Switch", "op": "Switch", "input": ["Preprocessor/map/while/Merge", "Preprocessor/map/while/LoopCond"], "attr": {"T": {"type": "DT_INT32"}}}, {"name": "Preprocessor/map/while/TensorArrayReadV3", "op": "TensorArrayReadV3", "input": ["Preprocessor/map/while/TensorArrayReadV3/Enter", "Preprocessor/map/while/Switch_1:1", "Preprocessor/map/while/TensorArrayReadV3/Enter_1"], "attr": {"dtype": {"type": "DT_FLOAT"}}}, {"name": "Preprocessor/map/while/Exit_2", "op": "Exit", "input": ["Preprocessor/map/while/Switch_2"], "attr": {"T": {"type": "DT_FLOAT"}}}, {"name": "Preprocessor/map/while/Identity", "op": "Identity", "input": ["Preprocessor/map/while/Switch:1"], "attr": {"T": {"type": "DT_INT32"}}}, {"name": "Preprocessor/map/TensorArrayStack/TensorArraySizeV3", "op": "TensorArraySizeV3", "input": ["Preprocessor/map/TensorArray_1", "Preprocessor/map/while/Exit_2"]}, {"name": "Preprocessor/map/while/add/y", "op": "Const", "input": ["^Preprocessor/map/while/Identity"], "attr": {"value": {"tensor": {"dtype": "DT_INT32", "tensorShape": {}}}, "dtype": {"type": "DT_INT32"}}}, {"name": "Preprocessor/map/while/ResizeImage/stack", "op": "Const", "input": ["^Preprocessor/map/while/Identity"], "attr": {"value": {"tensor": {"dtype": "DT_INT32", "tensorShape": {"dim": [{"size": "2"}]}}}, "dtype": {"type": "DT_INT32"}}}, {"name": "Preprocessor/map/while/ResizeImage/resize/ExpandDims/dim", "op": "Const", "input": ["^Preprocessor/map/while/Identity"], "attr": {"value": {"tensor": {"dtype": "DT_INT32", "tensorShape": {}}}, "dtype": {"type": "DT_INT32"}}}, {"name": "Preprocessor/map/TensorArrayStack/range", "op": "Range", "input": ["Preprocessor/map/TensorArrayUnstack/range/start", "Preprocessor/map/TensorArrayStack/TensorArraySizeV3", "Preprocessor/map/TensorArrayUnstack/range/delta"], "attr": {"Tidx": {"type": "DT_INT32"}}}, {"name": "Preprocessor/map/while/add", "op": "AddV2", "input": ["Preprocessor/map/while/Identity", "Preprocessor/map/while/add/y"], "attr": {"T": {"type": "DT_INT32"}}}, {"name": "Preprocessor/map/while/add_1", "op": "AddV2", "input": ["Preprocessor/map/while/Switch_1:1", "Preprocessor/map/while/add/y"], "attr": {"T": {"type": "DT_INT32"}}}, {"name": "Preprocessor/map/while/ResizeImage/resize/ExpandDims", "op": "ExpandDims", "input": ["Preprocessor/map/while/TensorArrayReadV3", "Preprocessor/map/while/ResizeImage/resize/ExpandDims/dim"], "attr": {"Tdim": {"type": "DT_INT32"}, "T": {"type": "DT_FLOAT"}}}, {"name": "Preprocessor/map/TensorArrayStack/TensorArrayGatherV3", "op": "TensorArrayGatherV3", "input": ["Preprocessor/map/TensorArray_1", "Preprocessor/map/TensorArrayStack/range", "Preprocessor/map/while/Exit_2"], "attr": {"dtype": {"type": "DT_FLOAT"}, "element_shape": {"shape": {"dim": [{"size": "300"}, {"size": "300"}, {"size": "3"}]}}}}, {"name": "Preprocessor/map/while/NextIteration", "op": "NextIteration", "input": ["Preprocessor/map/while/add"], "attr": {"T": {"type": "DT_INT32"}}}, {"name": "Preprocessor/map/while/NextIteration_1", "op": "NextIteration", "input": ["Preprocessor/map/while/add_1"], "attr": {"T": {"type": "DT_INT32"}}}, {"name": "Preprocessor/map/while/ResizeImage/resize/ResizeBilinear", "op": "ResizeBilinear", "input": ["Preprocessor/map/while/ResizeImage/resize/ExpandDims", "Preprocessor/map/while/ResizeImage/stack"], "attr": {"align_corners": {"b": false}, "half_pixel_centers": {"b": false}, "T": {"type": "DT_FLOAT"}}}, {"name": "Preprocessor/mul", "op": "Mul", "input": ["Preprocessor/map/TensorArrayStack/TensorArrayGatherV3", "Preprocessor/mul/x"], "attr": {"T": {"type": "DT_FLOAT"}}}, {"name": "Preprocessor/map/while/ResizeImage/resize/Squeeze", "op": "Squeeze", "input": ["Preprocessor/map/while/ResizeImage/resize/ResizeBilinear"], "attr": {"squeeze_dims": {"list": {"i": ["0"]}}, "T": {"type": "DT_FLOAT"}}}, {"name": "Preprocessor/sub", "op": "Sub", "input": ["Preprocessor/mul", "Preprocessor/sub/y"], "attr": {"T": {"type": "DT_FLOAT"}}}, {"name": "Preprocessor/map/while/TensorArrayWrite/TensorArrayWriteV3", "op": "TensorArrayWriteV3", "input": ["Preprocessor/map/while/TensorArrayWrite/TensorArrayWriteV3/Enter", "Preprocessor/map/while/Switch_1:1", "Preprocessor/map/while/ResizeImage/resize/Squeeze", "Preprocessor/map/while/Switch_2:1"], "attr": {"T": {"type": "DT_FLOAT"}}}, {"name": "FeatureExtractor/MobilenetV2/Conv/Conv2D_Fold", "op": "Conv2D", "input": ["Preprocessor/sub", "FeatureExtractor/MobilenetV2/Conv/weights_quant/FakeQuantWithMinMaxVars"], "device": "/device:CPU:0", "attr": {"dilations": {"list": {"i": ["1", "1", "1", "1"]}}, "T": {"type": "DT_FLOAT"}, "strides": {"list": {"i": ["1", "2", "2", "1"]}}, "data_format": {"s": "TkhXQw=="}, "explicit_paddings": {"list": {}}, "use_cudnn_on_gpu": {"b": true}, "padding": {"s": "U0FNRQ=="}}}, {"name": "Preprocessor/map/while/NextIteration_2", "op": "NextIteration", "input": ["Preprocessor/map/while/TensorArrayWrite/TensorArrayWriteV3"], "attr": {"T": {"type": "DT_FLOAT"}}}, {"name": "FeatureExtractor/MobilenetV2/Conv/add_fold", "op": "Add", "input": ["FeatureExtractor/MobilenetV2/Conv/BatchNorm_Fold/bias", "FeatureExtractor/MobilenetV2/Conv/Conv2D_Fold"], "attr": {"T": {"type": "DT_FLOAT"}}}, {"name": "FeatureExtractor/MobilenetV2/Conv/Relu6", "op": "Relu6", "input": ["FeatureExtractor/MobilenetV2/Conv/add_fold"], "attr": {"T": {"type": "DT_FLOAT"}}}, {"name": "FeatureExtractor/MobilenetV2/Conv/act_quant/FakeQuantWithMinMaxVars", "op": "FakeQuantWithMinMaxVars", "input": ["FeatureExtractor/MobilenetV2/Conv/Relu6", "FeatureExtractor/MobilenetV2/expanded_conv_7/expand/act_quant/min", "FeatureExtractor/MobilenetV2/expanded_conv_7/expand/act_quant/max"], "attr": {"narrow_range": {"b": false}, "num_bits": {"i": "8"}}}, {"name": "FeatureExtractor/MobilenetV2/expanded_conv/depthwise/depthwise_Fold", "op": "DepthwiseConv2dNative", "input": ["FeatureExtractor/MobilenetV2/Conv/act_quant/FakeQuantWithMinMaxVars", "FeatureExtractor/MobilenetV2/expanded_conv/depthwise/weights_quant/FakeQuantWithMinMaxVars"], "attr": {"padding": {"s": "U0FNRQ=="}, "dilations": {"list": {"i": ["1", "1", "1", "1"]}}, "T": {"type": "DT_FLOAT"}, "strides": {"list": {"i": ["1", "1", "1", "1"]}}, "data_format": {"s": "TkhXQw=="}}}, {"name": "FeatureExtractor/MobilenetV2/expanded_conv/depthwise/add_fold", "op": "Add", "input": ["FeatureExtractor/MobilenetV2/expanded_conv/depthwise/BatchNorm_Fold/bias", "FeatureExtractor/MobilenetV2/expanded_conv/depthwise/depthwise_Fold"], "attr": {"T": {"type": "DT_FLOAT"}}}, {"name": "FeatureExtractor/MobilenetV2/expanded_conv/depthwise/Relu6", "op": "Relu6", "input": ["FeatureExtractor/MobilenetV2/expanded_conv/depthwise/add_fold"], "attr": {"T": {"type": "DT_FLOAT"}}}, {"name": "FeatureExtractor/MobilenetV2/expanded_conv/depthwise/act_quant/FakeQuantWithMinMaxVars", "op": "FakeQuantWithMinMaxVars", "input": ["FeatureExtractor/MobilenetV2/expanded_conv/depthwise/Relu6", "FeatureExtractor/MobilenetV2/expanded_conv_7/expand/act_quant/min", "FeatureExtractor/MobilenetV2/expanded_conv_7/expand/act_quant/max"], "attr": {"narrow_range": {"b": false}, "num_bits": {"i": "8"}}}, {"name": "FeatureExtractor/MobilenetV2/expanded_conv/project/Conv2D_Fold", "op": "Conv2D", "input": ["FeatureExtractor/MobilenetV2/expanded_conv/depthwise/act_quant/FakeQuantWithMinMaxVars", "FeatureExtractor/MobilenetV2/expanded_conv/project/weights_quant/FakeQuantWithMinMaxVars"], "device": "/device:CPU:0", "attr": {"dilations": {"list": {"i": ["1", "1", "1", "1"]}}, "T": {"type": "DT_FLOAT"}, "data_format": {"s": "TkhXQw=="}, "strides": {"list": {"i": ["1", "1", "1", "1"]}}, "explicit_paddings": {"list": {}}, "use_cudnn_on_gpu": {"b": true}, "padding": {"s": "U0FNRQ=="}}}, {"name": "FeatureExtractor/MobilenetV2/expanded_conv/project/add_fold", "op": "Add", "input": ["FeatureExtractor/MobilenetV2/expanded_conv/project/BatchNorm_Fold/bias", "FeatureExtractor/MobilenetV2/expanded_conv/project/Conv2D_Fold"], "attr": {"T": {"type": "DT_FLOAT"}}}, {"name": "FeatureExtractor/MobilenetV2/expanded_conv/project/act_quant/FakeQuantWithMinMaxVars", "op": "FakeQuantWithMinMaxVars", "input": ["FeatureExtractor/MobilenetV2/expanded_conv/project/add_fold", "FeatureExtractor/MobilenetV2/expanded_conv/project/act_quant/min", "FeatureExtractor/MobilenetV2/expanded_conv/project/act_quant/max"], "attr": {"num_bits": {"i": "8"}, "narrow_range": {"b": false}}}, {"name": "FeatureExtractor/MobilenetV2/expanded_conv_1/expand/Conv2D_Fold", "op": "Conv2D", "input": ["FeatureExtractor/MobilenetV2/expanded_conv/project/act_quant/FakeQuantWithMinMaxVars", "FeatureExtractor/MobilenetV2/expanded_conv_1/expand/weights_quant/FakeQuantWithMinMaxVars"], "device": "/device:CPU:0", "attr": {"dilations": {"list": {"i": ["1", "1", "1", "1"]}}, "T": {"type": "DT_FLOAT"}, "strides": {"list": {"i": ["1", "1", "1", "1"]}}, "data_format": {"s": "TkhXQw=="}, "use_cudnn_on_gpu": {"b": true}, "explicit_paddings": {"list": {}}, "padding": {"s": "U0FNRQ=="}}}, {"name": "FeatureExtractor/MobilenetV2/expanded_conv_1/expand/add_fold", "op": "Add", "input": ["FeatureExtractor/MobilenetV2/expanded_conv_1/expand/BatchNorm_Fold/bias", "FeatureExtractor/MobilenetV2/expanded_conv_1/expand/Conv2D_Fold"], "attr": {"T": {"type": "DT_FLOAT"}}}, {"name": "FeatureExtractor/MobilenetV2/expanded_conv_1/expand/Relu6", "op": "Relu6", "input": ["FeatureExtractor/MobilenetV2/expanded_conv_1/expand/add_fold"], "attr": {"T": {"type": "DT_FLOAT"}}}, {"name": "FeatureExtractor/MobilenetV2/expanded_conv_1/expand/act_quant/FakeQuantWithMinMaxVars", "op": "FakeQuantWithMinMaxVars", "input": ["FeatureExtractor/MobilenetV2/expanded_conv_1/expand/Relu6", "FeatureExtractor/MobilenetV2/expanded_conv_7/expand/act_quant/min", "FeatureExtractor/MobilenetV2/expanded_conv_7/expand/act_quant/max"], "attr": {"narrow_range": {"b": false}, "num_bits": {"i": "8"}}}, {"name": "FeatureExtractor/MobilenetV2/expanded_conv_1/depthwise/depthwise_Fold", "op": "DepthwiseConv2dNative", "input": ["FeatureExtractor/MobilenetV2/expanded_conv_1/expand/act_quant/FakeQuantWithMinMaxVars", "FeatureExtractor/MobilenetV2/expanded_conv_1/depthwise/weights_quant/FakeQuantWithMinMaxVars"], "attr": {"strides": {"list": {"i": ["1", "2", "2", "1"]}}, "data_format": {"s": "TkhXQw=="}, "padding": {"s": "U0FNRQ=="}, "dilations": {"list": {"i": ["1", "1", "1", "1"]}}, "T": {"type": "DT_FLOAT"}}}, {"name": "FeatureExtractor/MobilenetV2/expanded_conv_1/depthwise/add_fold", "op": "Add", "input": ["FeatureExtractor/MobilenetV2/expanded_conv_1/depthwise/BatchNorm_Fold/bias", "FeatureExtractor/MobilenetV2/expanded_conv_1/depthwise/depthwise_Fold"], "attr": {"T": {"type": "DT_FLOAT"}}}, {"name": "FeatureExtractor/MobilenetV2/expanded_conv_1/depthwise/Relu6", "op": "Relu6", "input": ["FeatureExtractor/MobilenetV2/expanded_conv_1/depthwise/add_fold"], "attr": {"T": {"type": "DT_FLOAT"}}}, {"name": "FeatureExtractor/MobilenetV2/expanded_conv_1/depthwise/act_quant/FakeQuantWithMinMaxVars", "op": "FakeQuantWithMinMaxVars", "input": ["FeatureExtractor/MobilenetV2/expanded_conv_1/depthwise/Relu6", "FeatureExtractor/MobilenetV2/expanded_conv_7/expand/act_quant/min", "FeatureExtractor/MobilenetV2/expanded_conv_7/expand/act_quant/max"], "attr": {"narrow_range": {"b": false}, "num_bits": {"i": "8"}}}, {"name": "FeatureExtractor/MobilenetV2/expanded_conv_1/project/Conv2D_Fold", "op": "Conv2D", "input": ["FeatureExtractor/MobilenetV2/expanded_conv_1/depthwise/act_quant/FakeQuantWithMinMaxVars", "FeatureExtractor/MobilenetV2/expanded_conv_1/project/weights_quant/FakeQuantWithMinMaxVars"], "device": "/device:CPU:0", "attr": {"dilations": {"list": {"i": ["1", "1", "1", "1"]}}, "T": {"type": "DT_FLOAT"}, "data_format": {"s": "TkhXQw=="}, "strides": {"list": {"i": ["1", "1", "1", "1"]}}, "explicit_paddings": {"list": {}}, "use_cudnn_on_gpu": {"b": true}, "padding": {"s": "U0FNRQ=="}}}, {"name": "FeatureExtractor/MobilenetV2/expanded_conv_1/project/add_fold", "op": "Add", "input": ["FeatureExtractor/MobilenetV2/expanded_conv_1/project/BatchNorm_Fold/bias", "FeatureExtractor/MobilenetV2/expanded_conv_1/project/Conv2D_Fold"], "attr": {"T": {"type": "DT_FLOAT"}}}, {"name": "FeatureExtractor/MobilenetV2/expanded_conv_1/project/act_quant/FakeQuantWithMinMaxVars", "op": "FakeQuantWithMinMaxVars", "input": ["FeatureExtractor/MobilenetV2/expanded_conv_1/project/add_fold", "FeatureExtractor/MobilenetV2/expanded_conv_1/project/act_quant/min", "FeatureExtractor/MobilenetV2/expanded_conv_1/project/act_quant/max"], "attr": {"num_bits": {"i": "8"}, "narrow_range": {"b": false}}}, {"name": "FeatureExtractor/MobilenetV2/expanded_conv_2/expand/Conv2D_Fold", "op": "Conv2D", "input": ["FeatureExtractor/MobilenetV2/expanded_conv_1/project/act_quant/FakeQuantWithMinMaxVars", "FeatureExtractor/MobilenetV2/expanded_conv_2/expand/weights_quant/FakeQuantWithMinMaxVars"], "device": "/device:CPU:0", "attr": {"padding": {"s": "U0FNRQ=="}, "dilations": {"list": {"i": ["1", "1", "1", "1"]}}, "T": {"type": "DT_FLOAT"}, "strides": {"list": {"i": ["1", "1", "1", "1"]}}, "data_format": {"s": "TkhXQw=="}, "explicit_paddings": {"list": {}}, "use_cudnn_on_gpu": {"b": true}}}, {"name": "FeatureExtractor/MobilenetV2/expanded_conv_2/expand/add_fold", "op": "Add", "input": ["FeatureExtractor/MobilenetV2/expanded_conv_2/expand/BatchNorm_Fold/bias", "FeatureExtractor/MobilenetV2/expanded_conv_2/expand/Conv2D_Fold"], "attr": {"T": {"type": "DT_FLOAT"}}}, {"name": "FeatureExtractor/MobilenetV2/expanded_conv_2/expand/Relu6", "op": "Relu6", "input": ["FeatureExtractor/MobilenetV2/expanded_conv_2/expand/add_fold"], "attr": {"T": {"type": "DT_FLOAT"}}}, {"name": "FeatureExtractor/MobilenetV2/expanded_conv_2/expand/act_quant/FakeQuantWithMinMaxVars", "op": "FakeQuantWithMinMaxVars", "input": ["FeatureExtractor/MobilenetV2/expanded_conv_2/expand/Relu6", "FeatureExtractor/MobilenetV2/expanded_conv_7/expand/act_quant/min", "FeatureExtractor/MobilenetV2/expanded_conv_7/expand/act_quant/max"], "attr": {"narrow_range": {"b": false}, "num_bits": {"i": "8"}}}, {"name": "FeatureExtractor/MobilenetV2/expanded_conv_2/depthwise/depthwise_Fold", "op": "DepthwiseConv2dNative", "input": ["FeatureExtractor/MobilenetV2/expanded_conv_2/expand/act_quant/FakeQuantWithMinMaxVars", "FeatureExtractor/MobilenetV2/expanded_conv_2/depthwise/weights_quant/FakeQuantWithMinMaxVars"], "attr": {"padding": {"s": "U0FNRQ=="}, "dilations": {"list": {"i": ["1", "1", "1", "1"]}}, "T": {"type": "DT_FLOAT"}, "strides": {"list": {"i": ["1", "1", "1", "1"]}}, "data_format": {"s": "TkhXQw=="}}}, {"name": "FeatureExtractor/MobilenetV2/expanded_conv_2/depthwise/add_fold", "op": "Add", "input": ["FeatureExtractor/MobilenetV2/expanded_conv_2/depthwise/BatchNorm_Fold/bias", "FeatureExtractor/MobilenetV2/expanded_conv_2/depthwise/depthwise_Fold"], "attr": {"T": {"type": "DT_FLOAT"}}}, {"name": "FeatureExtractor/MobilenetV2/expanded_conv_2/depthwise/Relu6", "op": "Relu6", "input": ["FeatureExtractor/MobilenetV2/expanded_conv_2/depthwise/add_fold"], "attr": {"T": {"type": "DT_FLOAT"}}}, {"name": "FeatureExtractor/MobilenetV2/expanded_conv_2/depthwise/act_quant/FakeQuantWithMinMaxVars", "op": "FakeQuantWithMinMaxVars", "input": ["FeatureExtractor/MobilenetV2/expanded_conv_2/depthwise/Relu6", "FeatureExtractor/MobilenetV2/expanded_conv_7/expand/act_quant/min", "FeatureExtractor/MobilenetV2/expanded_conv_7/expand/act_quant/max"], "attr": {"narrow_range": {"b": false}, "num_bits": {"i": "8"}}}, {"name": "FeatureExtractor/MobilenetV2/expanded_conv_2/project/Conv2D_Fold", "op": "Conv2D", "input": ["FeatureExtractor/MobilenetV2/expanded_conv_2/depthwise/act_quant/FakeQuantWithMinMaxVars", "FeatureExtractor/MobilenetV2/expanded_conv_2/project/weights_quant/FakeQuantWithMinMaxVars"], "device": "/device:CPU:0", "attr": {"T": {"type": "DT_FLOAT"}, "data_format": {"s": "TkhXQw=="}, "strides": {"list": {"i": ["1", "1", "1", "1"]}}, "explicit_paddings": {"list": {}}, "use_cudnn_on_gpu": {"b": true}, "padding": {"s": "U0FNRQ=="}, "dilations": {"list": {"i": ["1", "1", "1", "1"]}}}}, {"name": "FeatureExtractor/MobilenetV2/expanded_conv_2/project/add_fold", "op": "Add", "input": ["FeatureExtractor/MobilenetV2/expanded_conv_2/project/BatchNorm_Fold/bias", "FeatureExtractor/MobilenetV2/expanded_conv_2/project/Conv2D_Fold"], "attr": {"T": {"type": "DT_FLOAT"}}}, {"name": "FeatureExtractor/MobilenetV2/expanded_conv_2/project/act_quant/FakeQuantWithMinMaxVars", "op": "FakeQuantWithMinMaxVars", "input": ["FeatureExtractor/MobilenetV2/expanded_conv_2/project/add_fold", "FeatureExtractor/MobilenetV2/expanded_conv_2/project/act_quant/min", "FeatureExtractor/MobilenetV2/expanded_conv_2/project/act_quant/max"], "attr": {"num_bits": {"i": "8"}, "narrow_range": {"b": false}}}, {"name": "FeatureExtractor/MobilenetV2/expanded_conv_2/add", "op": "AddV2", "input": ["FeatureExtractor/MobilenetV2/expanded_conv_1/project/act_quant/FakeQuantWithMinMaxVars", "FeatureExtractor/MobilenetV2/expanded_conv_2/project/act_quant/FakeQuantWithMinMaxVars"], "attr": {"T": {"type": "DT_FLOAT"}}}, {"name": "FeatureExtractor/MobilenetV2/expanded_conv_2/post_activation_bypass_quant/FakeQuantWithMinMaxVars", "op": "FakeQuantWithMinMaxVars", "input": ["FeatureExtractor/MobilenetV2/expanded_conv_2/add", "FeatureExtractor/MobilenetV2/expanded_conv_2/post_activation_bypass_quant/min", "FeatureExtractor/MobilenetV2/expanded_conv_2/post_activation_bypass_quant/max"], "attr": {"narrow_range": {"b": false}, "num_bits": {"i": "8"}}}, {"name": "FeatureExtractor/MobilenetV2/expanded_conv_3/expand/Conv2D_Fold", "op": "Conv2D", "input": ["FeatureExtractor/MobilenetV2/expanded_conv_2/post_activation_bypass_quant/FakeQuantWithMinMaxVars", "FeatureExtractor/MobilenetV2/expanded_conv_3/expand/weights_quant/FakeQuantWithMinMaxVars"], "device": "/device:CPU:0", "attr": {"dilations": {"list": {"i": ["1", "1", "1", "1"]}}, "T": {"type": "DT_FLOAT"}, "data_format": {"s": "TkhXQw=="}, "strides": {"list": {"i": ["1", "1", "1", "1"]}}, "use_cudnn_on_gpu": {"b": true}, "explicit_paddings": {"list": {}}, "padding": {"s": "U0FNRQ=="}}}, {"name": "FeatureExtractor/MobilenetV2/expanded_conv_3/expand/add_fold", "op": "Add", "input": ["FeatureExtractor/MobilenetV2/expanded_conv_3/expand/BatchNorm_Fold/bias", "FeatureExtractor/MobilenetV2/expanded_conv_3/expand/Conv2D_Fold"], "attr": {"T": {"type": "DT_FLOAT"}}}, {"name": "FeatureExtractor/MobilenetV2/expanded_conv_3/expand/Relu6", "op": "Relu6", "input": ["FeatureExtractor/MobilenetV2/expanded_conv_3/expand/add_fold"], "attr": {"T": {"type": "DT_FLOAT"}}}, {"name": "FeatureExtractor/MobilenetV2/expanded_conv_3/expand/act_quant/FakeQuantWithMinMaxVars", "op": "FakeQuantWithMinMaxVars", "input": ["FeatureExtractor/MobilenetV2/expanded_conv_3/expand/Relu6", "FeatureExtractor/MobilenetV2/expanded_conv_7/expand/act_quant/min", "FeatureExtractor/MobilenetV2/expanded_conv_7/expand/act_quant/max"], "attr": {"narrow_range": {"b": false}, "num_bits": {"i": "8"}}}, {"name": "FeatureExtractor/MobilenetV2/expanded_conv_3/depthwise/depthwise_Fold", "op": "DepthwiseConv2dNative", "input": ["FeatureExtractor/MobilenetV2/expanded_conv_3/expand/act_quant/FakeQuantWithMinMaxVars", "FeatureExtractor/MobilenetV2/expanded_conv_3/depthwise/weights_quant/FakeQuantWithMinMaxVars"], "attr": {"T": {"type": "DT_FLOAT"}, "strides": {"list": {"i": ["1", "2", "2", "1"]}}, "data_format": {"s": "TkhXQw=="}, "padding": {"s": "U0FNRQ=="}, "dilations": {"list": {"i": ["1", "1", "1", "1"]}}}}, {"name": "FeatureExtractor/MobilenetV2/expanded_conv_3/depthwise/add_fold", "op": "Add", "input": ["FeatureExtractor/MobilenetV2/expanded_conv_3/depthwise/BatchNorm_Fold/bias", "FeatureExtractor/MobilenetV2/expanded_conv_3/depthwise/depthwise_Fold"], "attr": {"T": {"type": "DT_FLOAT"}}}, {"name": "FeatureExtractor/MobilenetV2/expanded_conv_3/depthwise/Relu6", "op": "Relu6", "input": ["FeatureExtractor/MobilenetV2/expanded_conv_3/depthwise/add_fold"], "attr": {"T": {"type": "DT_FLOAT"}}}, {"name": "FeatureExtractor/MobilenetV2/expanded_conv_3/depthwise/act_quant/FakeQuantWithMinMaxVars", "op": "FakeQuantWithMinMaxVars", "input": ["FeatureExtractor/MobilenetV2/expanded_conv_3/depthwise/Relu6", "FeatureExtractor/MobilenetV2/expanded_conv_7/expand/act_quant/min", "FeatureExtractor/MobilenetV2/expanded_conv_7/expand/act_quant/max"], "attr": {"narrow_range": {"b": false}, "num_bits": {"i": "8"}}}, {"name": "FeatureExtractor/MobilenetV2/expanded_conv_3/project/Conv2D_Fold", "op": "Conv2D", "input": ["FeatureExtractor/MobilenetV2/expanded_conv_3/depthwise/act_quant/FakeQuantWithMinMaxVars", "FeatureExtractor/MobilenetV2/expanded_conv_3/project/weights_quant/FakeQuantWithMinMaxVars"], "device": "/device:CPU:0", "attr": {"dilations": {"list": {"i": ["1", "1", "1", "1"]}}, "T": {"type": "DT_FLOAT"}, "data_format": {"s": "TkhXQw=="}, "strides": {"list": {"i": ["1", "1", "1", "1"]}}, "use_cudnn_on_gpu": {"b": true}, "explicit_paddings": {"list": {}}, "padding": {"s": "U0FNRQ=="}}}, {"name": "FeatureExtractor/MobilenetV2/expanded_conv_3/project/add_fold", "op": "Add", "input": ["FeatureExtractor/MobilenetV2/expanded_conv_3/project/BatchNorm_Fold/bias", "FeatureExtractor/MobilenetV2/expanded_conv_3/project/Conv2D_Fold"], "attr": {"T": {"type": "DT_FLOAT"}}}, {"name": "FeatureExtractor/MobilenetV2/expanded_conv_3/project/act_quant/FakeQuantWithMinMaxVars", "op": "FakeQuantWithMinMaxVars", "input": ["FeatureExtractor/MobilenetV2/expanded_conv_3/project/add_fold", "FeatureExtractor/MobilenetV2/expanded_conv_3/project/act_quant/min", "FeatureExtractor/MobilenetV2/expanded_conv_3/project/act_quant/max"], "attr": {"num_bits": {"i": "8"}, "narrow_range": {"b": false}}}, {"name": "FeatureExtractor/MobilenetV2/expanded_conv_4/expand/Conv2D_Fold", "op": "Conv2D", "input": ["FeatureExtractor/MobilenetV2/expanded_conv_3/project/act_quant/FakeQuantWithMinMaxVars", "FeatureExtractor/MobilenetV2/expanded_conv_4/expand/weights_quant/FakeQuantWithMinMaxVars"], "device": "/device:CPU:0", "attr": {"strides": {"list": {"i": ["1", "1", "1", "1"]}}, "data_format": {"s": "TkhXQw=="}, "use_cudnn_on_gpu": {"b": true}, "explicit_paddings": {"list": {}}, "padding": {"s": "U0FNRQ=="}, "dilations": {"list": {"i": ["1", "1", "1", "1"]}}, "T": {"type": "DT_FLOAT"}}}, {"name": "FeatureExtractor/MobilenetV2/expanded_conv_4/expand/add_fold", "op": "Add", "input": ["FeatureExtractor/MobilenetV2/expanded_conv_4/expand/BatchNorm_Fold/bias", "FeatureExtractor/MobilenetV2/expanded_conv_4/expand/Conv2D_Fold"], "attr": {"T": {"type": "DT_FLOAT"}}}, {"name": "FeatureExtractor/MobilenetV2/expanded_conv_4/expand/Relu6", "op": "Relu6", "input": ["FeatureExtractor/MobilenetV2/expanded_conv_4/expand/add_fold"], "attr": {"T": {"type": "DT_FLOAT"}}}, {"name": "FeatureExtractor/MobilenetV2/expanded_conv_4/expand/act_quant/FakeQuantWithMinMaxVars", "op": "FakeQuantWithMinMaxVars", "input": ["FeatureExtractor/MobilenetV2/expanded_conv_4/expand/Relu6", "FeatureExtractor/MobilenetV2/expanded_conv_7/expand/act_quant/min", "FeatureExtractor/MobilenetV2/expanded_conv_7/expand/act_quant/max"], "attr": {"narrow_range": {"b": false}, "num_bits": {"i": "8"}}}, {"name": "FeatureExtractor/MobilenetV2/expanded_conv_4/depthwise/depthwise_Fold", "op": "DepthwiseConv2dNative", "input": ["FeatureExtractor/MobilenetV2/expanded_conv_4/expand/act_quant/FakeQuantWithMinMaxVars", "FeatureExtractor/MobilenetV2/expanded_conv_4/depthwise/weights_quant/FakeQuantWithMinMaxVars"], "attr": {"padding": {"s": "U0FNRQ=="}, "dilations": {"list": {"i": ["1", "1", "1", "1"]}}, "T": {"type": "DT_FLOAT"}, "strides": {"list": {"i": ["1", "1", "1", "1"]}}, "data_format": {"s": "TkhXQw=="}}}, {"name": "FeatureExtractor/MobilenetV2/expanded_conv_4/depthwise/add_fold", "op": "Add", "input": ["FeatureExtractor/MobilenetV2/expanded_conv_4/depthwise/BatchNorm_Fold/bias", "FeatureExtractor/MobilenetV2/expanded_conv_4/depthwise/depthwise_Fold"], "attr": {"T": {"type": "DT_FLOAT"}}}, {"name": "FeatureExtractor/MobilenetV2/expanded_conv_4/depthwise/Relu6", "op": "Relu6", "input": ["FeatureExtractor/MobilenetV2/expanded_conv_4/depthwise/add_fold"], "attr": {"T": {"type": "DT_FLOAT"}}}, {"name": "FeatureExtractor/MobilenetV2/expanded_conv_4/depthwise/act_quant/FakeQuantWithMinMaxVars", "op": "FakeQuantWithMinMaxVars", "input": ["FeatureExtractor/MobilenetV2/expanded_conv_4/depthwise/Relu6", "FeatureExtractor/MobilenetV2/expanded_conv_7/expand/act_quant/min", "FeatureExtractor/MobilenetV2/expanded_conv_7/expand/act_quant/max"], "attr": {"narrow_range": {"b": false}, "num_bits": {"i": "8"}}}, {"name": "FeatureExtractor/MobilenetV2/expanded_conv_4/project/Conv2D_Fold", "op": "Conv2D", "input": ["FeatureExtractor/MobilenetV2/expanded_conv_4/depthwise/act_quant/FakeQuantWithMinMaxVars", "FeatureExtractor/MobilenetV2/expanded_conv_4/project/weights_quant/FakeQuantWithMinMaxVars"], "device": "/device:CPU:0", "attr": {"data_format": {"s": "TkhXQw=="}, "strides": {"list": {"i": ["1", "1", "1", "1"]}}, "explicit_paddings": {"list": {}}, "use_cudnn_on_gpu": {"b": true}, "padding": {"s": "U0FNRQ=="}, "dilations": {"list": {"i": ["1", "1", "1", "1"]}}, "T": {"type": "DT_FLOAT"}}}, {"name": "FeatureExtractor/MobilenetV2/expanded_conv_4/project/add_fold", "op": "Add", "input": ["FeatureExtractor/MobilenetV2/expanded_conv_4/project/BatchNorm_Fold/bias", "FeatureExtractor/MobilenetV2/expanded_conv_4/project/Conv2D_Fold"], "attr": {"T": {"type": "DT_FLOAT"}}}, {"name": "FeatureExtractor/MobilenetV2/expanded_conv_4/project/act_quant/FakeQuantWithMinMaxVars", "op": "FakeQuantWithMinMaxVars", "input": ["FeatureExtractor/MobilenetV2/expanded_conv_4/project/add_fold", "FeatureExtractor/MobilenetV2/expanded_conv_4/project/act_quant/min", "FeatureExtractor/MobilenetV2/expanded_conv_4/project/act_quant/max"], "attr": {"num_bits": {"i": "8"}, "narrow_range": {"b": false}}}, {"name": "FeatureExtractor/MobilenetV2/expanded_conv_4/add", "op": "AddV2", "input": ["FeatureExtractor/MobilenetV2/expanded_conv_3/project/act_quant/FakeQuantWithMinMaxVars", "FeatureExtractor/MobilenetV2/expanded_conv_4/project/act_quant/FakeQuantWithMinMaxVars"], "attr": {"T": {"type": "DT_FLOAT"}}}, {"name": "FeatureExtractor/MobilenetV2/expanded_conv_4/post_activation_bypass_quant/FakeQuantWithMinMaxVars", "op": "FakeQuantWithMinMaxVars", "input": ["FeatureExtractor/MobilenetV2/expanded_conv_4/add", "FeatureExtractor/MobilenetV2/expanded_conv_4/post_activation_bypass_quant/min", "FeatureExtractor/MobilenetV2/expanded_conv_4/post_activation_bypass_quant/max"], "attr": {"narrow_range": {"b": false}, "num_bits": {"i": "8"}}}, {"name": "FeatureExtractor/MobilenetV2/expanded_conv_5/expand/Conv2D_Fold", "op": "Conv2D", "input": ["FeatureExtractor/MobilenetV2/expanded_conv_4/post_activation_bypass_quant/FakeQuantWithMinMaxVars", "FeatureExtractor/MobilenetV2/expanded_conv_5/expand/weights_quant/FakeQuantWithMinMaxVars"], "device": "/device:CPU:0", "attr": {"dilations": {"list": {"i": ["1", "1", "1", "1"]}}, "T": {"type": "DT_FLOAT"}, "strides": {"list": {"i": ["1", "1", "1", "1"]}}, "data_format": {"s": "TkhXQw=="}, "explicit_paddings": {"list": {}}, "use_cudnn_on_gpu": {"b": true}, "padding": {"s": "U0FNRQ=="}}}, {"name": "FeatureExtractor/MobilenetV2/expanded_conv_5/expand/add_fold", "op": "Add", "input": ["FeatureExtractor/MobilenetV2/expanded_conv_5/expand/BatchNorm_Fold/bias", "FeatureExtractor/MobilenetV2/expanded_conv_5/expand/Conv2D_Fold"], "attr": {"T": {"type": "DT_FLOAT"}}}, {"name": "FeatureExtractor/MobilenetV2/expanded_conv_5/expand/Relu6", "op": "Relu6", "input": ["FeatureExtractor/MobilenetV2/expanded_conv_5/expand/add_fold"], "attr": {"T": {"type": "DT_FLOAT"}}}, {"name": "FeatureExtractor/MobilenetV2/expanded_conv_5/expand/act_quant/FakeQuantWithMinMaxVars", "op": "FakeQuantWithMinMaxVars", "input": ["FeatureExtractor/MobilenetV2/expanded_conv_5/expand/Relu6", "FeatureExtractor/MobilenetV2/expanded_conv_7/expand/act_quant/min", "FeatureExtractor/MobilenetV2/expanded_conv_7/expand/act_quant/max"], "attr": {"narrow_range": {"b": false}, "num_bits": {"i": "8"}}}, {"name": "FeatureExtractor/MobilenetV2/expanded_conv_5/depthwise/depthwise_Fold", "op": "DepthwiseConv2dNative", "input": ["FeatureExtractor/MobilenetV2/expanded_conv_5/expand/act_quant/FakeQuantWithMinMaxVars", "FeatureExtractor/MobilenetV2/expanded_conv_5/depthwise/weights_quant/FakeQuantWithMinMaxVars"], "attr": {"padding": {"s": "U0FNRQ=="}, "dilations": {"list": {"i": ["1", "1", "1", "1"]}}, "T": {"type": "DT_FLOAT"}, "strides": {"list": {"i": ["1", "1", "1", "1"]}}, "data_format": {"s": "TkhXQw=="}}}, {"name": "FeatureExtractor/MobilenetV2/expanded_conv_5/depthwise/add_fold", "op": "Add", "input": ["FeatureExtractor/MobilenetV2/expanded_conv_5/depthwise/BatchNorm_Fold/bias", "FeatureExtractor/MobilenetV2/expanded_conv_5/depthwise/depthwise_Fold"], "attr": {"T": {"type": "DT_FLOAT"}}}, {"name": "FeatureExtractor/MobilenetV2/expanded_conv_5/depthwise/Relu6", "op": "Relu6", "input": ["FeatureExtractor/MobilenetV2/expanded_conv_5/depthwise/add_fold"], "attr": {"T": {"type": "DT_FLOAT"}}}, {"name": "FeatureExtractor/MobilenetV2/expanded_conv_5/depthwise/act_quant/FakeQuantWithMinMaxVars", "op": "FakeQuantWithMinMaxVars", "input": ["FeatureExtractor/MobilenetV2/expanded_conv_5/depthwise/Relu6", "FeatureExtractor/MobilenetV2/expanded_conv_7/expand/act_quant/min", "FeatureExtractor/MobilenetV2/expanded_conv_7/expand/act_quant/max"], "attr": {"narrow_range": {"b": false}, "num_bits": {"i": "8"}}}, {"name": "FeatureExtractor/MobilenetV2/expanded_conv_5/project/Conv2D_Fold", "op": "Conv2D", "input": ["FeatureExtractor/MobilenetV2/expanded_conv_5/depthwise/act_quant/FakeQuantWithMinMaxVars", "FeatureExtractor/MobilenetV2/expanded_conv_5/project/weights_quant/FakeQuantWithMinMaxVars"], "device": "/device:CPU:0", "attr": {"padding": {"s": "U0FNRQ=="}, "dilations": {"list": {"i": ["1", "1", "1", "1"]}}, "T": {"type": "DT_FLOAT"}, "data_format": {"s": "TkhXQw=="}, "strides": {"list": {"i": ["1", "1", "1", "1"]}}, "use_cudnn_on_gpu": {"b": true}, "explicit_paddings": {"list": {}}}}, {"name": "FeatureExtractor/MobilenetV2/expanded_conv_5/project/add_fold", "op": "Add", "input": ["FeatureExtractor/MobilenetV2/expanded_conv_5/project/BatchNorm_Fold/bias", "FeatureExtractor/MobilenetV2/expanded_conv_5/project/Conv2D_Fold"], "attr": {"T": {"type": "DT_FLOAT"}}}, {"name": "FeatureExtractor/MobilenetV2/expanded_conv_5/project/act_quant/FakeQuantWithMinMaxVars", "op": "FakeQuantWithMinMaxVars", "input": ["FeatureExtractor/MobilenetV2/expanded_conv_5/project/add_fold", "FeatureExtractor/MobilenetV2/expanded_conv_5/project/act_quant/min", "FeatureExtractor/MobilenetV2/expanded_conv_5/project/act_quant/max"], "attr": {"num_bits": {"i": "8"}, "narrow_range": {"b": false}}}, {"name": "FeatureExtractor/MobilenetV2/expanded_conv_5/add", "op": "AddV2", "input": ["FeatureExtractor/MobilenetV2/expanded_conv_4/post_activation_bypass_quant/FakeQuantWithMinMaxVars", "FeatureExtractor/MobilenetV2/expanded_conv_5/project/act_quant/FakeQuantWithMinMaxVars"], "attr": {"T": {"type": "DT_FLOAT"}}}, {"name": "FeatureExtractor/MobilenetV2/expanded_conv_5/post_activation_bypass_quant/FakeQuantWithMinMaxVars", "op": "FakeQuantWithMinMaxVars", "input": ["FeatureExtractor/MobilenetV2/expanded_conv_5/add", "FeatureExtractor/MobilenetV2/expanded_conv_5/post_activation_bypass_quant/min", "FeatureExtractor/MobilenetV2/expanded_conv_5/post_activation_bypass_quant/max"], "attr": {"narrow_range": {"b": false}, "num_bits": {"i": "8"}}}, {"name": "FeatureExtractor/MobilenetV2/expanded_conv_6/expand/Conv2D_Fold", "op": "Conv2D", "input": ["FeatureExtractor/MobilenetV2/expanded_conv_5/post_activation_bypass_quant/FakeQuantWithMinMaxVars", "FeatureExtractor/MobilenetV2/expanded_conv_6/expand/weights_quant/FakeQuantWithMinMaxVars"], "device": "/device:CPU:0", "attr": {"T": {"type": "DT_FLOAT"}, "strides": {"list": {"i": ["1", "1", "1", "1"]}}, "data_format": {"s": "TkhXQw=="}, "use_cudnn_on_gpu": {"b": true}, "explicit_paddings": {"list": {}}, "padding": {"s": "U0FNRQ=="}, "dilations": {"list": {"i": ["1", "1", "1", "1"]}}}}, {"name": "FeatureExtractor/MobilenetV2/expanded_conv_6/expand/add_fold", "op": "Add", "input": ["FeatureExtractor/MobilenetV2/expanded_conv_6/expand/BatchNorm_Fold/bias", "FeatureExtractor/MobilenetV2/expanded_conv_6/expand/Conv2D_Fold"], "attr": {"T": {"type": "DT_FLOAT"}}}, {"name": "FeatureExtractor/MobilenetV2/expanded_conv_6/expand/Relu6", "op": "Relu6", "input": ["FeatureExtractor/MobilenetV2/expanded_conv_6/expand/add_fold"], "attr": {"T": {"type": "DT_FLOAT"}}}, {"name": "FeatureExtractor/MobilenetV2/expanded_conv_6/expand/act_quant/FakeQuantWithMinMaxVars", "op": "FakeQuantWithMinMaxVars", "input": ["FeatureExtractor/MobilenetV2/expanded_conv_6/expand/Relu6", "FeatureExtractor/MobilenetV2/expanded_conv_7/expand/act_quant/min", "FeatureExtractor/MobilenetV2/expanded_conv_7/expand/act_quant/max"], "attr": {"narrow_range": {"b": false}, "num_bits": {"i": "8"}}}, {"name": "FeatureExtractor/MobilenetV2/expanded_conv_6/depthwise/depthwise_Fold", "op": "DepthwiseConv2dNative", "input": ["FeatureExtractor/MobilenetV2/expanded_conv_6/expand/act_quant/FakeQuantWithMinMaxVars", "FeatureExtractor/MobilenetV2/expanded_conv_6/depthwise/weights_quant/FakeQuantWithMinMaxVars"], "attr": {"padding": {"s": "U0FNRQ=="}, "dilations": {"list": {"i": ["1", "1", "1", "1"]}}, "T": {"type": "DT_FLOAT"}, "strides": {"list": {"i": ["1", "2", "2", "1"]}}, "data_format": {"s": "TkhXQw=="}}}, {"name": "FeatureExtractor/MobilenetV2/expanded_conv_6/depthwise/add_fold", "op": "Add", "input": ["FeatureExtractor/MobilenetV2/expanded_conv_6/depthwise/BatchNorm_Fold/bias", "FeatureExtractor/MobilenetV2/expanded_conv_6/depthwise/depthwise_Fold"], "attr": {"T": {"type": "DT_FLOAT"}}}, {"name": "FeatureExtractor/MobilenetV2/expanded_conv_6/depthwise/Relu6", "op": "Relu6", "input": ["FeatureExtractor/MobilenetV2/expanded_conv_6/depthwise/add_fold"], "attr": {"T": {"type": "DT_FLOAT"}}}, {"name": "FeatureExtractor/MobilenetV2/expanded_conv_6/depthwise/act_quant/FakeQuantWithMinMaxVars", "op": "FakeQuantWithMinMaxVars", "input": ["FeatureExtractor/MobilenetV2/expanded_conv_6/depthwise/Relu6", "FeatureExtractor/MobilenetV2/expanded_conv_7/expand/act_quant/min", "FeatureExtractor/MobilenetV2/expanded_conv_7/expand/act_quant/max"], "attr": {"narrow_range": {"b": false}, "num_bits": {"i": "8"}}}, {"name": "FeatureExtractor/MobilenetV2/expanded_conv_6/project/Conv2D_Fold", "op": "Conv2D", "input": ["FeatureExtractor/MobilenetV2/expanded_conv_6/depthwise/act_quant/FakeQuantWithMinMaxVars", "FeatureExtractor/MobilenetV2/expanded_conv_6/project/weights_quant/FakeQuantWithMinMaxVars"], "device": "/device:CPU:0", "attr": {"use_cudnn_on_gpu": {"b": true}, "explicit_paddings": {"list": {}}, "padding": {"s": "U0FNRQ=="}, "dilations": {"list": {"i": ["1", "1", "1", "1"]}}, "T": {"type": "DT_FLOAT"}, "strides": {"list": {"i": ["1", "1", "1", "1"]}}, "data_format": {"s": "TkhXQw=="}}}, {"name": "FeatureExtractor/MobilenetV2/expanded_conv_6/project/add_fold", "op": "Add", "input": ["FeatureExtractor/MobilenetV2/expanded_conv_6/project/BatchNorm_Fold/bias", "FeatureExtractor/MobilenetV2/expanded_conv_6/project/Conv2D_Fold"], "attr": {"T": {"type": "DT_FLOAT"}}}, {"name": "FeatureExtractor/MobilenetV2/expanded_conv_6/project/act_quant/FakeQuantWithMinMaxVars", "op": "FakeQuantWithMinMaxVars", "input": ["FeatureExtractor/MobilenetV2/expanded_conv_6/project/add_fold", "FeatureExtractor/MobilenetV2/expanded_conv_6/project/act_quant/min", "FeatureExtractor/MobilenetV2/expanded_conv_6/project/act_quant/max"], "attr": {"num_bits": {"i": "8"}, "narrow_range": {"b": false}}}, {"name": "FeatureExtractor/MobilenetV2/expanded_conv_7/expand/Conv2D_Fold", "op": "Conv2D", "input": ["FeatureExtractor/MobilenetV2/expanded_conv_6/project/act_quant/FakeQuantWithMinMaxVars", "FeatureExtractor/MobilenetV2/expanded_conv_7/expand/weights_quant/FakeQuantWithMinMaxVars"], "device": "/device:CPU:0", "attr": {"T": {"type": "DT_FLOAT"}, "strides": {"list": {"i": ["1", "1", "1", "1"]}}, "data_format": {"s": "TkhXQw=="}, "use_cudnn_on_gpu": {"b": true}, "explicit_paddings": {"list": {}}, "padding": {"s": "U0FNRQ=="}, "dilations": {"list": {"i": ["1", "1", "1", "1"]}}}}, {"name": "FeatureExtractor/MobilenetV2/expanded_conv_7/expand/add_fold", "op": "Add", "input": ["FeatureExtractor/MobilenetV2/expanded_conv_7/expand/BatchNorm_Fold/bias", "FeatureExtractor/MobilenetV2/expanded_conv_7/expand/Conv2D_Fold"], "attr": {"T": {"type": "DT_FLOAT"}}}, {"name": "FeatureExtractor/MobilenetV2/expanded_conv_7/expand/Relu6", "op": "Relu6", "input": ["FeatureExtractor/MobilenetV2/expanded_conv_7/expand/add_fold"], "attr": {"T": {"type": "DT_FLOAT"}}}, {"name": "FeatureExtractor/MobilenetV2/expanded_conv_7/expand/act_quant/FakeQuantWithMinMaxVars", "op": "FakeQuantWithMinMaxVars", "input": ["FeatureExtractor/MobilenetV2/expanded_conv_7/expand/Relu6", "FeatureExtractor/MobilenetV2/expanded_conv_7/expand/act_quant/min", "FeatureExtractor/MobilenetV2/expanded_conv_7/expand/act_quant/max"], "attr": {"narrow_range": {"b": false}, "num_bits": {"i": "8"}}}, {"name": "FeatureExtractor/MobilenetV2/expanded_conv_7/depthwise/depthwise_Fold", "op": "DepthwiseConv2dNative", "input": ["FeatureExtractor/MobilenetV2/expanded_conv_7/expand/act_quant/FakeQuantWithMinMaxVars", "FeatureExtractor/MobilenetV2/expanded_conv_7/depthwise/weights_quant/FakeQuantWithMinMaxVars"], "attr": {"padding": {"s": "U0FNRQ=="}, "dilations": {"list": {"i": ["1", "1", "1", "1"]}}, "T": {"type": "DT_FLOAT"}, "strides": {"list": {"i": ["1", "1", "1", "1"]}}, "data_format": {"s": "TkhXQw=="}}}, {"name": "FeatureExtractor/MobilenetV2/expanded_conv_7/depthwise/add_fold", "op": "Add", "input": ["FeatureExtractor/MobilenetV2/expanded_conv_7/depthwise/BatchNorm_Fold/bias", "FeatureExtractor/MobilenetV2/expanded_conv_7/depthwise/depthwise_Fold"], "attr": {"T": {"type": "DT_FLOAT"}}}, {"name": "FeatureExtractor/MobilenetV2/expanded_conv_7/depthwise/Relu6", "op": "Relu6", "input": ["FeatureExtractor/MobilenetV2/expanded_conv_7/depthwise/add_fold"], "attr": {"T": {"type": "DT_FLOAT"}}}, {"name": "FeatureExtractor/MobilenetV2/expanded_conv_7/depthwise/act_quant/FakeQuantWithMinMaxVars", "op": "FakeQuantWithMinMaxVars", "input": ["FeatureExtractor/MobilenetV2/expanded_conv_7/depthwise/Relu6", "FeatureExtractor/MobilenetV2/expanded_conv_7/expand/act_quant/min", "FeatureExtractor/MobilenetV2/expanded_conv_7/expand/act_quant/max"], "attr": {"narrow_range": {"b": false}, "num_bits": {"i": "8"}}}, {"name": "FeatureExtractor/MobilenetV2/expanded_conv_7/project/Conv2D_Fold", "op": "Conv2D", "input": ["FeatureExtractor/MobilenetV2/expanded_conv_7/depthwise/act_quant/FakeQuantWithMinMaxVars", "FeatureExtractor/MobilenetV2/expanded_conv_7/project/weights_quant/FakeQuantWithMinMaxVars"], "device": "/device:CPU:0", "attr": {"use_cudnn_on_gpu": {"b": true}, "explicit_paddings": {"list": {}}, "padding": {"s": "U0FNRQ=="}, "dilations": {"list": {"i": ["1", "1", "1", "1"]}}, "T": {"type": "DT_FLOAT"}, "data_format": {"s": "TkhXQw=="}, "strides": {"list": {"i": ["1", "1", "1", "1"]}}}}, {"name": "FeatureExtractor/MobilenetV2/expanded_conv_7/project/add_fold", "op": "Add", "input": ["FeatureExtractor/MobilenetV2/expanded_conv_7/project/BatchNorm_Fold/bias", "FeatureExtractor/MobilenetV2/expanded_conv_7/project/Conv2D_Fold"], "attr": {"T": {"type": "DT_FLOAT"}}}, {"name": "FeatureExtractor/MobilenetV2/expanded_conv_7/project/act_quant/FakeQuantWithMinMaxVars", "op": "FakeQuantWithMinMaxVars", "input": ["FeatureExtractor/MobilenetV2/expanded_conv_7/project/add_fold", "FeatureExtractor/MobilenetV2/expanded_conv_7/project/act_quant/min", "FeatureExtractor/MobilenetV2/expanded_conv_7/project/act_quant/max"], "attr": {"num_bits": {"i": "8"}, "narrow_range": {"b": false}}}, {"name": "FeatureExtractor/MobilenetV2/expanded_conv_7/add", "op": "AddV2", "input": ["FeatureExtractor/MobilenetV2/expanded_conv_6/project/act_quant/FakeQuantWithMinMaxVars", "FeatureExtractor/MobilenetV2/expanded_conv_7/project/act_quant/FakeQuantWithMinMaxVars"], "attr": {"T": {"type": "DT_FLOAT"}}}, {"name": "FeatureExtractor/MobilenetV2/expanded_conv_7/post_activation_bypass_quant/FakeQuantWithMinMaxVars", "op": "FakeQuantWithMinMaxVars", "input": ["FeatureExtractor/MobilenetV2/expanded_conv_7/add", "FeatureExtractor/MobilenetV2/expanded_conv_7/post_activation_bypass_quant/min", "FeatureExtractor/MobilenetV2/expanded_conv_7/post_activation_bypass_quant/max"], "attr": {"narrow_range": {"b": false}, "num_bits": {"i": "8"}}}, {"name": "FeatureExtractor/MobilenetV2/expanded_conv_8/expand/Conv2D_Fold", "op": "Conv2D", "input": ["FeatureExtractor/MobilenetV2/expanded_conv_7/post_activation_bypass_quant/FakeQuantWithMinMaxVars", "FeatureExtractor/MobilenetV2/expanded_conv_8/expand/weights_quant/FakeQuantWithMinMaxVars"], "device": "/device:CPU:0", "attr": {"padding": {"s": "U0FNRQ=="}, "dilations": {"list": {"i": ["1", "1", "1", "1"]}}, "T": {"type": "DT_FLOAT"}, "strides": {"list": {"i": ["1", "1", "1", "1"]}}, "data_format": {"s": "TkhXQw=="}, "explicit_paddings": {"list": {}}, "use_cudnn_on_gpu": {"b": true}}}, {"name": "FeatureExtractor/MobilenetV2/expanded_conv_8/expand/add_fold", "op": "Add", "input": ["FeatureExtractor/MobilenetV2/expanded_conv_8/expand/BatchNorm_Fold/bias", "FeatureExtractor/MobilenetV2/expanded_conv_8/expand/Conv2D_Fold"], "attr": {"T": {"type": "DT_FLOAT"}}}, {"name": "FeatureExtractor/MobilenetV2/expanded_conv_8/expand/Relu6", "op": "Relu6", "input": ["FeatureExtractor/MobilenetV2/expanded_conv_8/expand/add_fold"], "attr": {"T": {"type": "DT_FLOAT"}}}, {"name": "FeatureExtractor/MobilenetV2/expanded_conv_8/expand/act_quant/FakeQuantWithMinMaxVars", "op": "FakeQuantWithMinMaxVars", "input": ["FeatureExtractor/MobilenetV2/expanded_conv_8/expand/Relu6", "FeatureExtractor/MobilenetV2/expanded_conv_7/expand/act_quant/min", "FeatureExtractor/MobilenetV2/expanded_conv_7/expand/act_quant/max"], "attr": {"narrow_range": {"b": false}, "num_bits": {"i": "8"}}}, {"name": "FeatureExtractor/MobilenetV2/expanded_conv_8/depthwise/depthwise_Fold", "op": "DepthwiseConv2dNative", "input": ["FeatureExtractor/MobilenetV2/expanded_conv_8/expand/act_quant/FakeQuantWithMinMaxVars", "FeatureExtractor/MobilenetV2/expanded_conv_8/depthwise/weights_quant/FakeQuantWithMinMaxVars"], "attr": {"padding": {"s": "U0FNRQ=="}, "dilations": {"list": {"i": ["1", "1", "1", "1"]}}, "T": {"type": "DT_FLOAT"}, "strides": {"list": {"i": ["1", "1", "1", "1"]}}, "data_format": {"s": "TkhXQw=="}}}, {"name": "FeatureExtractor/MobilenetV2/expanded_conv_8/depthwise/add_fold", "op": "Add", "input": ["FeatureExtractor/MobilenetV2/expanded_conv_8/depthwise/BatchNorm_Fold/bias", "FeatureExtractor/MobilenetV2/expanded_conv_8/depthwise/depthwise_Fold"], "attr": {"T": {"type": "DT_FLOAT"}}}, {"name": "FeatureExtractor/MobilenetV2/expanded_conv_8/depthwise/Relu6", "op": "Relu6", "input": ["FeatureExtractor/MobilenetV2/expanded_conv_8/depthwise/add_fold"], "attr": {"T": {"type": "DT_FLOAT"}}}, {"name": "FeatureExtractor/MobilenetV2/expanded_conv_8/depthwise/act_quant/FakeQuantWithMinMaxVars", "op": "FakeQuantWithMinMaxVars", "input": ["FeatureExtractor/MobilenetV2/expanded_conv_8/depthwise/Relu6", "FeatureExtractor/MobilenetV2/expanded_conv_7/expand/act_quant/min", "FeatureExtractor/MobilenetV2/expanded_conv_7/expand/act_quant/max"], "attr": {"narrow_range": {"b": false}, "num_bits": {"i": "8"}}}, {"name": "FeatureExtractor/MobilenetV2/expanded_conv_8/project/Conv2D_Fold", "op": "Conv2D", "input": ["FeatureExtractor/MobilenetV2/expanded_conv_8/depthwise/act_quant/FakeQuantWithMinMaxVars", "FeatureExtractor/MobilenetV2/expanded_conv_8/project/weights_quant/FakeQuantWithMinMaxVars"], "device": "/device:CPU:0", "attr": {"dilations": {"list": {"i": ["1", "1", "1", "1"]}}, "T": {"type": "DT_FLOAT"}, "strides": {"list": {"i": ["1", "1", "1", "1"]}}, "data_format": {"s": "TkhXQw=="}, "explicit_paddings": {"list": {}}, "use_cudnn_on_gpu": {"b": true}, "padding": {"s": "U0FNRQ=="}}}, {"name": "FeatureExtractor/MobilenetV2/expanded_conv_8/project/add_fold", "op": "Add", "input": ["FeatureExtractor/MobilenetV2/expanded_conv_8/project/BatchNorm_Fold/bias", "FeatureExtractor/MobilenetV2/expanded_conv_8/project/Conv2D_Fold"], "attr": {"T": {"type": "DT_FLOAT"}}}, {"name": "FeatureExtractor/MobilenetV2/expanded_conv_8/project/act_quant/FakeQuantWithMinMaxVars", "op": "FakeQuantWithMinMaxVars", "input": ["FeatureExtractor/MobilenetV2/expanded_conv_8/project/add_fold", "FeatureExtractor/MobilenetV2/expanded_conv_8/project/act_quant/min", "FeatureExtractor/MobilenetV2/expanded_conv_8/project/act_quant/max"], "attr": {"num_bits": {"i": "8"}, "narrow_range": {"b": false}}}, {"name": "FeatureExtractor/MobilenetV2/expanded_conv_8/add", "op": "AddV2", "input": ["FeatureExtractor/MobilenetV2/expanded_conv_7/post_activation_bypass_quant/FakeQuantWithMinMaxVars", "FeatureExtractor/MobilenetV2/expanded_conv_8/project/act_quant/FakeQuantWithMinMaxVars"], "attr": {"T": {"type": "DT_FLOAT"}}}, {"name": "FeatureExtractor/MobilenetV2/expanded_conv_8/post_activation_bypass_quant/FakeQuantWithMinMaxVars", "op": "FakeQuantWithMinMaxVars", "input": ["FeatureExtractor/MobilenetV2/expanded_conv_8/add", "FeatureExtractor/MobilenetV2/expanded_conv_8/post_activation_bypass_quant/min", "FeatureExtractor/MobilenetV2/expanded_conv_8/post_activation_bypass_quant/max"], "attr": {"narrow_range": {"b": false}, "num_bits": {"i": "8"}}}, {"name": "FeatureExtractor/MobilenetV2/expanded_conv_9/expand/Conv2D_Fold", "op": "Conv2D", "input": ["FeatureExtractor/MobilenetV2/expanded_conv_8/post_activation_bypass_quant/FakeQuantWithMinMaxVars", "FeatureExtractor/MobilenetV2/expanded_conv_9/expand/weights_quant/FakeQuantWithMinMaxVars"], "device": "/device:CPU:0", "attr": {"dilations": {"list": {"i": ["1", "1", "1", "1"]}}, "T": {"type": "DT_FLOAT"}, "data_format": {"s": "TkhXQw=="}, "strides": {"list": {"i": ["1", "1", "1", "1"]}}, "use_cudnn_on_gpu": {"b": true}, "explicit_paddings": {"list": {}}, "padding": {"s": "U0FNRQ=="}}}, {"name": "FeatureExtractor/MobilenetV2/expanded_conv_9/expand/add_fold", "op": "Add", "input": ["FeatureExtractor/MobilenetV2/expanded_conv_9/expand/BatchNorm_Fold/bias", "FeatureExtractor/MobilenetV2/expanded_conv_9/expand/Conv2D_Fold"], "attr": {"T": {"type": "DT_FLOAT"}}}, {"name": "FeatureExtractor/MobilenetV2/expanded_conv_9/expand/Relu6", "op": "Relu6", "input": ["FeatureExtractor/MobilenetV2/expanded_conv_9/expand/add_fold"], "attr": {"T": {"type": "DT_FLOAT"}}}, {"name": "FeatureExtractor/MobilenetV2/expanded_conv_9/expand/act_quant/FakeQuantWithMinMaxVars", "op": "FakeQuantWithMinMaxVars", "input": ["FeatureExtractor/MobilenetV2/expanded_conv_9/expand/Relu6", "FeatureExtractor/MobilenetV2/expanded_conv_7/expand/act_quant/min", "FeatureExtractor/MobilenetV2/expanded_conv_7/expand/act_quant/max"], "attr": {"narrow_range": {"b": false}, "num_bits": {"i": "8"}}}, {"name": "FeatureExtractor/MobilenetV2/expanded_conv_9/depthwise/depthwise_Fold", "op": "DepthwiseConv2dNative", "input": ["FeatureExtractor/MobilenetV2/expanded_conv_9/expand/act_quant/FakeQuantWithMinMaxVars", "FeatureExtractor/MobilenetV2/expanded_conv_9/depthwise/weights_quant/FakeQuantWithMinMaxVars"], "attr": {"padding": {"s": "U0FNRQ=="}, "dilations": {"list": {"i": ["1", "1", "1", "1"]}}, "T": {"type": "DT_FLOAT"}, "strides": {"list": {"i": ["1", "1", "1", "1"]}}, "data_format": {"s": "TkhXQw=="}}}, {"name": "FeatureExtractor/MobilenetV2/expanded_conv_9/depthwise/add_fold", "op": "Add", "input": ["FeatureExtractor/MobilenetV2/expanded_conv_9/depthwise/BatchNorm_Fold/bias", "FeatureExtractor/MobilenetV2/expanded_conv_9/depthwise/depthwise_Fold"], "attr": {"T": {"type": "DT_FLOAT"}}}, {"name": "FeatureExtractor/MobilenetV2/expanded_conv_9/depthwise/Relu6", "op": "Relu6", "input": ["FeatureExtractor/MobilenetV2/expanded_conv_9/depthwise/add_fold"], "attr": {"T": {"type": "DT_FLOAT"}}}, {"name": "FeatureExtractor/MobilenetV2/expanded_conv_9/depthwise/act_quant/FakeQuantWithMinMaxVars", "op": "FakeQuantWithMinMaxVars", "input": ["FeatureExtractor/MobilenetV2/expanded_conv_9/depthwise/Relu6", "FeatureExtractor/MobilenetV2/expanded_conv_7/expand/act_quant/min", "FeatureExtractor/MobilenetV2/expanded_conv_7/expand/act_quant/max"], "attr": {"narrow_range": {"b": false}, "num_bits": {"i": "8"}}}, {"name": "FeatureExtractor/MobilenetV2/expanded_conv_9/project/Conv2D_Fold", "op": "Conv2D", "input": ["FeatureExtractor/MobilenetV2/expanded_conv_9/depthwise/act_quant/FakeQuantWithMinMaxVars", "FeatureExtractor/MobilenetV2/expanded_conv_9/project/weights_quant/FakeQuantWithMinMaxVars"], "device": "/device:CPU:0", "attr": {"padding": {"s": "U0FNRQ=="}, "dilations": {"list": {"i": ["1", "1", "1", "1"]}}, "T": {"type": "DT_FLOAT"}, "strides": {"list": {"i": ["1", "1", "1", "1"]}}, "data_format": {"s": "TkhXQw=="}, "use_cudnn_on_gpu": {"b": true}, "explicit_paddings": {"list": {}}}}, {"name": "FeatureExtractor/MobilenetV2/expanded_conv_9/project/add_fold", "op": "Add", "input": ["FeatureExtractor/MobilenetV2/expanded_conv_9/project/BatchNorm_Fold/bias", "FeatureExtractor/MobilenetV2/expanded_conv_9/project/Conv2D_Fold"], "attr": {"T": {"type": "DT_FLOAT"}}}, {"name": "FeatureExtractor/MobilenetV2/expanded_conv_9/project/act_quant/FakeQuantWithMinMaxVars", "op": "FakeQuantWithMinMaxVars", "input": ["FeatureExtractor/MobilenetV2/expanded_conv_9/project/add_fold", "FeatureExtractor/MobilenetV2/expanded_conv_9/project/act_quant/min", "FeatureExtractor/MobilenetV2/expanded_conv_9/project/act_quant/max"], "attr": {"num_bits": {"i": "8"}, "narrow_range": {"b": false}}}, {"name": "FeatureExtractor/MobilenetV2/expanded_conv_9/add", "op": "AddV2", "input": ["FeatureExtractor/MobilenetV2/expanded_conv_8/post_activation_bypass_quant/FakeQuantWithMinMaxVars", "FeatureExtractor/MobilenetV2/expanded_conv_9/project/act_quant/FakeQuantWithMinMaxVars"], "attr": {"T": {"type": "DT_FLOAT"}}}, {"name": "FeatureExtractor/MobilenetV2/expanded_conv_9/post_activation_bypass_quant/FakeQuantWithMinMaxVars", "op": "FakeQuantWithMinMaxVars", "input": ["FeatureExtractor/MobilenetV2/expanded_conv_9/add", "FeatureExtractor/MobilenetV2/expanded_conv_9/post_activation_bypass_quant/min", "FeatureExtractor/MobilenetV2/expanded_conv_9/post_activation_bypass_quant/max"], "attr": {"narrow_range": {"b": false}, "num_bits": {"i": "8"}}}, {"name": "FeatureExtractor/MobilenetV2/expanded_conv_10/expand/Conv2D_Fold", "op": "Conv2D", "input": ["FeatureExtractor/MobilenetV2/expanded_conv_9/post_activation_bypass_quant/FakeQuantWithMinMaxVars", "FeatureExtractor/MobilenetV2/expanded_conv_10/expand/weights_quant/FakeQuantWithMinMaxVars"], "device": "/device:CPU:0", "attr": {"dilations": {"list": {"i": ["1", "1", "1", "1"]}}, "T": {"type": "DT_FLOAT"}, "data_format": {"s": "TkhXQw=="}, "strides": {"list": {"i": ["1", "1", "1", "1"]}}, "use_cudnn_on_gpu": {"b": true}, "explicit_paddings": {"list": {}}, "padding": {"s": "U0FNRQ=="}}}, {"name": "FeatureExtractor/MobilenetV2/expanded_conv_10/expand/add_fold", "op": "Add", "input": ["FeatureExtractor/MobilenetV2/expanded_conv_10/expand/BatchNorm_Fold/bias", "FeatureExtractor/MobilenetV2/expanded_conv_10/expand/Conv2D_Fold"], "attr": {"T": {"type": "DT_FLOAT"}}}, {"name": "FeatureExtractor/MobilenetV2/expanded_conv_10/expand/Relu6", "op": "Relu6", "input": ["FeatureExtractor/MobilenetV2/expanded_conv_10/expand/add_fold"], "attr": {"T": {"type": "DT_FLOAT"}}}, {"name": "FeatureExtractor/MobilenetV2/expanded_conv_10/expand/act_quant/FakeQuantWithMinMaxVars", "op": "FakeQuantWithMinMaxVars", "input": ["FeatureExtractor/MobilenetV2/expanded_conv_10/expand/Relu6", "FeatureExtractor/MobilenetV2/expanded_conv_7/expand/act_quant/min", "FeatureExtractor/MobilenetV2/expanded_conv_7/expand/act_quant/max"], "attr": {"narrow_range": {"b": false}, "num_bits": {"i": "8"}}}, {"name": "FeatureExtractor/MobilenetV2/expanded_conv_10/depthwise/depthwise_Fold", "op": "DepthwiseConv2dNative", "input": ["FeatureExtractor/MobilenetV2/expanded_conv_10/expand/act_quant/FakeQuantWithMinMaxVars", "FeatureExtractor/MobilenetV2/expanded_conv_10/depthwise/weights_quant/FakeQuantWithMinMaxVars"], "attr": {"padding": {"s": "U0FNRQ=="}, "dilations": {"list": {"i": ["1", "1", "1", "1"]}}, "T": {"type": "DT_FLOAT"}, "strides": {"list": {"i": ["1", "1", "1", "1"]}}, "data_format": {"s": "TkhXQw=="}}}, {"name": "FeatureExtractor/MobilenetV2/expanded_conv_10/depthwise/add_fold", "op": "Add", "input": ["FeatureExtractor/MobilenetV2/expanded_conv_10/depthwise/BatchNorm_Fold/bias", "FeatureExtractor/MobilenetV2/expanded_conv_10/depthwise/depthwise_Fold"], "attr": {"T": {"type": "DT_FLOAT"}}}, {"name": "FeatureExtractor/MobilenetV2/expanded_conv_10/depthwise/Relu6", "op": "Relu6", "input": ["FeatureExtractor/MobilenetV2/expanded_conv_10/depthwise/add_fold"], "attr": {"T": {"type": "DT_FLOAT"}}}, {"name": "FeatureExtractor/MobilenetV2/expanded_conv_10/depthwise/act_quant/FakeQuantWithMinMaxVars", "op": "FakeQuantWithMinMaxVars", "input": ["FeatureExtractor/MobilenetV2/expanded_conv_10/depthwise/Relu6", "FeatureExtractor/MobilenetV2/expanded_conv_7/expand/act_quant/min", "FeatureExtractor/MobilenetV2/expanded_conv_7/expand/act_quant/max"], "attr": {"narrow_range": {"b": false}, "num_bits": {"i": "8"}}}, {"name": "FeatureExtractor/MobilenetV2/expanded_conv_10/project/Conv2D_Fold", "op": "Conv2D", "input": ["FeatureExtractor/MobilenetV2/expanded_conv_10/depthwise/act_quant/FakeQuantWithMinMaxVars", "FeatureExtractor/MobilenetV2/expanded_conv_10/project/weights_quant/FakeQuantWithMinMaxVars"], "device": "/device:CPU:0", "attr": {"dilations": {"list": {"i": ["1", "1", "1", "1"]}}, "T": {"type": "DT_FLOAT"}, "data_format": {"s": "TkhXQw=="}, "strides": {"list": {"i": ["1", "1", "1", "1"]}}, "use_cudnn_on_gpu": {"b": true}, "explicit_paddings": {"list": {}}, "padding": {"s": "U0FNRQ=="}}}, {"name": "FeatureExtractor/MobilenetV2/expanded_conv_10/project/add_fold", "op": "Add", "input": ["FeatureExtractor/MobilenetV2/expanded_conv_10/project/BatchNorm_Fold/bias", "FeatureExtractor/MobilenetV2/expanded_conv_10/project/Conv2D_Fold"], "attr": {"T": {"type": "DT_FLOAT"}}}, {"name": "FeatureExtractor/MobilenetV2/expanded_conv_10/project/act_quant/FakeQuantWithMinMaxVars", "op": "FakeQuantWithMinMaxVars", "input": ["FeatureExtractor/MobilenetV2/expanded_conv_10/project/add_fold", "FeatureExtractor/MobilenetV2/expanded_conv_10/project/act_quant/min", "FeatureExtractor/MobilenetV2/expanded_conv_10/project/act_quant/max"], "attr": {"num_bits": {"i": "8"}, "narrow_range": {"b": false}}}, {"name": "FeatureExtractor/MobilenetV2/expanded_conv_11/expand/Conv2D_Fold", "op": "Conv2D", "input": ["FeatureExtractor/MobilenetV2/expanded_conv_10/project/act_quant/FakeQuantWithMinMaxVars", "FeatureExtractor/MobilenetV2/expanded_conv_11/expand/weights_quant/FakeQuantWithMinMaxVars"], "device": "/device:CPU:0", "attr": {"dilations": {"list": {"i": ["1", "1", "1", "1"]}}, "T": {"type": "DT_FLOAT"}, "data_format": {"s": "TkhXQw=="}, "strides": {"list": {"i": ["1", "1", "1", "1"]}}, "use_cudnn_on_gpu": {"b": true}, "explicit_paddings": {"list": {}}, "padding": {"s": "U0FNRQ=="}}}, {"name": "FeatureExtractor/MobilenetV2/expanded_conv_11/expand/add_fold", "op": "Add", "input": ["FeatureExtractor/MobilenetV2/expanded_conv_11/expand/BatchNorm_Fold/bias", "FeatureExtractor/MobilenetV2/expanded_conv_11/expand/Conv2D_Fold"], "attr": {"T": {"type": "DT_FLOAT"}}}, {"name": "FeatureExtractor/MobilenetV2/expanded_conv_11/expand/Relu6", "op": "Relu6", "input": ["FeatureExtractor/MobilenetV2/expanded_conv_11/expand/add_fold"], "attr": {"T": {"type": "DT_FLOAT"}}}, {"name": "FeatureExtractor/MobilenetV2/expanded_conv_11/expand/act_quant/FakeQuantWithMinMaxVars", "op": "FakeQuantWithMinMaxVars", "input": ["FeatureExtractor/MobilenetV2/expanded_conv_11/expand/Relu6", "FeatureExtractor/MobilenetV2/expanded_conv_7/expand/act_quant/min", "FeatureExtractor/MobilenetV2/expanded_conv_7/expand/act_quant/max"], "attr": {"narrow_range": {"b": false}, "num_bits": {"i": "8"}}}, {"name": "FeatureExtractor/MobilenetV2/expanded_conv_11/depthwise/depthwise_Fold", "op": "DepthwiseConv2dNative", "input": ["FeatureExtractor/MobilenetV2/expanded_conv_11/expand/act_quant/FakeQuantWithMinMaxVars", "FeatureExtractor/MobilenetV2/expanded_conv_11/depthwise/weights_quant/FakeQuantWithMinMaxVars"], "attr": {"padding": {"s": "U0FNRQ=="}, "dilations": {"list": {"i": ["1", "1", "1", "1"]}}, "T": {"type": "DT_FLOAT"}, "strides": {"list": {"i": ["1", "1", "1", "1"]}}, "data_format": {"s": "TkhXQw=="}}}, {"name": "FeatureExtractor/MobilenetV2/expanded_conv_11/depthwise/add_fold", "op": "Add", "input": ["FeatureExtractor/MobilenetV2/expanded_conv_11/depthwise/BatchNorm_Fold/bias", "FeatureExtractor/MobilenetV2/expanded_conv_11/depthwise/depthwise_Fold"], "attr": {"T": {"type": "DT_FLOAT"}}}, {"name": "FeatureExtractor/MobilenetV2/expanded_conv_11/depthwise/Relu6", "op": "Relu6", "input": ["FeatureExtractor/MobilenetV2/expanded_conv_11/depthwise/add_fold"], "attr": {"T": {"type": "DT_FLOAT"}}}, {"name": "FeatureExtractor/MobilenetV2/expanded_conv_11/depthwise/act_quant/FakeQuantWithMinMaxVars", "op": "FakeQuantWithMinMaxVars", "input": ["FeatureExtractor/MobilenetV2/expanded_conv_11/depthwise/Relu6", "FeatureExtractor/MobilenetV2/expanded_conv_7/expand/act_quant/min", "FeatureExtractor/MobilenetV2/expanded_conv_7/expand/act_quant/max"], "attr": {"narrow_range": {"b": false}, "num_bits": {"i": "8"}}}, {"name": "FeatureExtractor/MobilenetV2/expanded_conv_11/project/Conv2D_Fold", "op": "Conv2D", "input": ["FeatureExtractor/MobilenetV2/expanded_conv_11/depthwise/act_quant/FakeQuantWithMinMaxVars", "FeatureExtractor/MobilenetV2/expanded_conv_11/project/weights_quant/FakeQuantWithMinMaxVars"], "device": "/device:CPU:0", "attr": {"dilations": {"list": {"i": ["1", "1", "1", "1"]}}, "T": {"type": "DT_FLOAT"}, "data_format": {"s": "TkhXQw=="}, "strides": {"list": {"i": ["1", "1", "1", "1"]}}, "explicit_paddings": {"list": {}}, "use_cudnn_on_gpu": {"b": true}, "padding": {"s": "U0FNRQ=="}}}, {"name": "FeatureExtractor/MobilenetV2/expanded_conv_11/project/add_fold", "op": "Add", "input": ["FeatureExtractor/MobilenetV2/expanded_conv_11/project/BatchNorm_Fold/bias", "FeatureExtractor/MobilenetV2/expanded_conv_11/project/Conv2D_Fold"], "attr": {"T": {"type": "DT_FLOAT"}}}, {"name": "FeatureExtractor/MobilenetV2/expanded_conv_11/project/act_quant/FakeQuantWithMinMaxVars", "op": "FakeQuantWithMinMaxVars", "input": ["FeatureExtractor/MobilenetV2/expanded_conv_11/project/add_fold", "FeatureExtractor/MobilenetV2/expanded_conv_11/project/act_quant/min", "FeatureExtractor/MobilenetV2/expanded_conv_11/project/act_quant/max"], "attr": {"num_bits": {"i": "8"}, "narrow_range": {"b": false}}}, {"name": "FeatureExtractor/MobilenetV2/expanded_conv_11/add", "op": "AddV2", "input": ["FeatureExtractor/MobilenetV2/expanded_conv_10/project/act_quant/FakeQuantWithMinMaxVars", "FeatureExtractor/MobilenetV2/expanded_conv_11/project/act_quant/FakeQuantWithMinMaxVars"], "attr": {"T": {"type": "DT_FLOAT"}}}, {"name": "FeatureExtractor/MobilenetV2/expanded_conv_11/post_activation_bypass_quant/FakeQuantWithMinMaxVars", "op": "FakeQuantWithMinMaxVars", "input": ["FeatureExtractor/MobilenetV2/expanded_conv_11/add", "FeatureExtractor/MobilenetV2/expanded_conv_11/post_activation_bypass_quant/min", "FeatureExtractor/MobilenetV2/expanded_conv_11/post_activation_bypass_quant/max"], "attr": {"narrow_range": {"b": false}, "num_bits": {"i": "8"}}}, {"name": "FeatureExtractor/MobilenetV2/expanded_conv_12/expand/Conv2D_Fold", "op": "Conv2D", "input": ["FeatureExtractor/MobilenetV2/expanded_conv_11/post_activation_bypass_quant/FakeQuantWithMinMaxVars", "FeatureExtractor/MobilenetV2/expanded_conv_12/expand/weights_quant/FakeQuantWithMinMaxVars"], "device": "/device:CPU:0", "attr": {"dilations": {"list": {"i": ["1", "1", "1", "1"]}}, "T": {"type": "DT_FLOAT"}, "data_format": {"s": "TkhXQw=="}, "strides": {"list": {"i": ["1", "1", "1", "1"]}}, "use_cudnn_on_gpu": {"b": true}, "explicit_paddings": {"list": {}}, "padding": {"s": "U0FNRQ=="}}}, {"name": "FeatureExtractor/MobilenetV2/expanded_conv_12/expand/add_fold", "op": "Add", "input": ["FeatureExtractor/MobilenetV2/expanded_conv_12/expand/BatchNorm_Fold/bias", "FeatureExtractor/MobilenetV2/expanded_conv_12/expand/Conv2D_Fold"], "attr": {"T": {"type": "DT_FLOAT"}}}, {"name": "FeatureExtractor/MobilenetV2/expanded_conv_12/expand/Relu6", "op": "Relu6", "input": ["FeatureExtractor/MobilenetV2/expanded_conv_12/expand/add_fold"], "attr": {"T": {"type": "DT_FLOAT"}}}, {"name": "FeatureExtractor/MobilenetV2/expanded_conv_12/expand/act_quant/FakeQuantWithMinMaxVars", "op": "FakeQuantWithMinMaxVars", "input": ["FeatureExtractor/MobilenetV2/expanded_conv_12/expand/Relu6", "FeatureExtractor/MobilenetV2/expanded_conv_7/expand/act_quant/min", "FeatureExtractor/MobilenetV2/expanded_conv_7/expand/act_quant/max"], "attr": {"narrow_range": {"b": false}, "num_bits": {"i": "8"}}}, {"name": "FeatureExtractor/MobilenetV2/expanded_conv_12/depthwise/depthwise_Fold", "op": "DepthwiseConv2dNative", "input": ["FeatureExtractor/MobilenetV2/expanded_conv_12/expand/act_quant/FakeQuantWithMinMaxVars", "FeatureExtractor/MobilenetV2/expanded_conv_12/depthwise/weights_quant/FakeQuantWithMinMaxVars"], "attr": {"padding": {"s": "U0FNRQ=="}, "dilations": {"list": {"i": ["1", "1", "1", "1"]}}, "T": {"type": "DT_FLOAT"}, "strides": {"list": {"i": ["1", "1", "1", "1"]}}, "data_format": {"s": "TkhXQw=="}}}, {"name": "FeatureExtractor/MobilenetV2/expanded_conv_12/depthwise/add_fold", "op": "Add", "input": ["FeatureExtractor/MobilenetV2/expanded_conv_12/depthwise/BatchNorm_Fold/bias", "FeatureExtractor/MobilenetV2/expanded_conv_12/depthwise/depthwise_Fold"], "attr": {"T": {"type": "DT_FLOAT"}}}, {"name": "FeatureExtractor/MobilenetV2/expanded_conv_12/depthwise/Relu6", "op": "Relu6", "input": ["FeatureExtractor/MobilenetV2/expanded_conv_12/depthwise/add_fold"], "attr": {"T": {"type": "DT_FLOAT"}}}, {"name": "FeatureExtractor/MobilenetV2/expanded_conv_12/depthwise/act_quant/FakeQuantWithMinMaxVars", "op": "FakeQuantWithMinMaxVars", "input": ["FeatureExtractor/MobilenetV2/expanded_conv_12/depthwise/Relu6", "FeatureExtractor/MobilenetV2/expanded_conv_7/expand/act_quant/min", "FeatureExtractor/MobilenetV2/expanded_conv_7/expand/act_quant/max"], "attr": {"narrow_range": {"b": false}, "num_bits": {"i": "8"}}}, {"name": "FeatureExtractor/MobilenetV2/expanded_conv_12/project/Conv2D_Fold", "op": "Conv2D", "input": ["FeatureExtractor/MobilenetV2/expanded_conv_12/depthwise/act_quant/FakeQuantWithMinMaxVars", "FeatureExtractor/MobilenetV2/expanded_conv_12/project/weights_quant/FakeQuantWithMinMaxVars"], "device": "/device:CPU:0", "attr": {"dilations": {"list": {"i": ["1", "1", "1", "1"]}}, "T": {"type": "DT_FLOAT"}, "strides": {"list": {"i": ["1", "1", "1", "1"]}}, "data_format": {"s": "TkhXQw=="}, "use_cudnn_on_gpu": {"b": true}, "explicit_paddings": {"list": {}}, "padding": {"s": "U0FNRQ=="}}}, {"name": "FeatureExtractor/MobilenetV2/expanded_conv_12/project/add_fold", "op": "Add", "input": ["FeatureExtractor/MobilenetV2/expanded_conv_12/project/BatchNorm_Fold/bias", "FeatureExtractor/MobilenetV2/expanded_conv_12/project/Conv2D_Fold"], "attr": {"T": {"type": "DT_FLOAT"}}}, {"name": "FeatureExtractor/MobilenetV2/expanded_conv_12/project/act_quant/FakeQuantWithMinMaxVars", "op": "FakeQuantWithMinMaxVars", "input": ["FeatureExtractor/MobilenetV2/expanded_conv_12/project/add_fold", "FeatureExtractor/MobilenetV2/expanded_conv_12/project/act_quant/min", "FeatureExtractor/MobilenetV2/expanded_conv_12/project/act_quant/max"], "attr": {"num_bits": {"i": "8"}, "narrow_range": {"b": false}}}, {"name": "FeatureExtractor/MobilenetV2/expanded_conv_12/add", "op": "AddV2", "input": ["FeatureExtractor/MobilenetV2/expanded_conv_11/post_activation_bypass_quant/FakeQuantWithMinMaxVars", "FeatureExtractor/MobilenetV2/expanded_conv_12/project/act_quant/FakeQuantWithMinMaxVars"], "attr": {"T": {"type": "DT_FLOAT"}}}, {"name": "FeatureExtractor/MobilenetV2/expanded_conv_12/post_activation_bypass_quant/FakeQuantWithMinMaxVars", "op": "FakeQuantWithMinMaxVars", "input": ["FeatureExtractor/MobilenetV2/expanded_conv_12/add", "FeatureExtractor/MobilenetV2/expanded_conv_12/post_activation_bypass_quant/min", "FeatureExtractor/MobilenetV2/expanded_conv_12/post_activation_bypass_quant/max"], "attr": {"narrow_range": {"b": false}, "num_bits": {"i": "8"}}}, {"name": "FeatureExtractor/MobilenetV2/expanded_conv_13/expand/Conv2D_Fold", "op": "Conv2D", "input": ["FeatureExtractor/MobilenetV2/expanded_conv_12/post_activation_bypass_quant/FakeQuantWithMinMaxVars", "FeatureExtractor/MobilenetV2/expanded_conv_13/expand/weights_quant/FakeQuantWithMinMaxVars"], "device": "/device:CPU:0", "attr": {"dilations": {"list": {"i": ["1", "1", "1", "1"]}}, "T": {"type": "DT_FLOAT"}, "strides": {"list": {"i": ["1", "1", "1", "1"]}}, "data_format": {"s": "TkhXQw=="}, "use_cudnn_on_gpu": {"b": true}, "explicit_paddings": {"list": {}}, "padding": {"s": "U0FNRQ=="}}}, {"name": "FeatureExtractor/MobilenetV2/expanded_conv_13/expand/add_fold", "op": "Add", "input": ["FeatureExtractor/MobilenetV2/expanded_conv_13/expand/BatchNorm_Fold/bias", "FeatureExtractor/MobilenetV2/expanded_conv_13/expand/Conv2D_Fold"], "attr": {"T": {"type": "DT_FLOAT"}}}, {"name": "FeatureExtractor/MobilenetV2/expanded_conv_13/expand/Relu6", "op": "Relu6", "input": ["FeatureExtractor/MobilenetV2/expanded_conv_13/expand/add_fold"], "attr": {"T": {"type": "DT_FLOAT"}}}, {"name": "FeatureExtractor/MobilenetV2/expanded_conv_13/expand/act_quant/FakeQuantWithMinMaxVars", "op": "FakeQuantWithMinMaxVars", "input": ["FeatureExtractor/MobilenetV2/expanded_conv_13/expand/Relu6", "FeatureExtractor/MobilenetV2/expanded_conv_7/expand/act_quant/min", "FeatureExtractor/MobilenetV2/expanded_conv_7/expand/act_quant/max"], "attr": {"narrow_range": {"b": false}, "num_bits": {"i": "8"}}}, {"name": "BoxPredictor_0/BoxEncodingPredictor/BiasAdd", "op": "_FusedConv2D", "input": ["FeatureExtractor/MobilenetV2/expanded_conv_13/expand/act_quant/FakeQuantWithMinMaxVars", "BoxPredictor_0/BoxEncodingPredictor/weights_quant/FakeQuantWithMinMaxVars", "BoxPredictor_0/BoxEncodingPredictor/biases"], "device": "/device:CPU:0", "attr": {"num_args": {"i": "1"}, "epsilon": {"f": 0.0}, "padding": {"s": "U0FNRQ=="}, "fused_ops": {"list": {"s": ["Qmlhc0FkZA=="]}}, "dilations": {"list": {"i": ["1", "1", "1", "1"]}}, "T": {"type": "DT_FLOAT"}, "strides": {"list": {"i": ["1", "1", "1", "1"]}}, "data_format": {"s": "TkhXQw=="}, "use_cudnn_on_gpu": {"b": true}, "explicit_paddings": {"list": {}}}}, {"name": "BoxPredictor_0/ClassPredictor/BiasAdd", "op": "_FusedConv2D", "input": ["FeatureExtractor/MobilenetV2/expanded_conv_13/expand/act_quant/FakeQuantWithMinMaxVars", "BoxPredictor_0/ClassPredictor/weights_quant/FakeQuantWithMinMaxVars", "BoxPredictor_0/ClassPredictor/biases"], "device": "/device:CPU:0", "attr": {"strides": {"list": {"i": ["1", "1", "1", "1"]}}, "data_format": {"s": "TkhXQw=="}, "explicit_paddings": {"list": {}}, "use_cudnn_on_gpu": {"b": true}, "num_args": {"i": "1"}, "epsilon": {"f": 0.0}, "padding": {"s": "U0FNRQ=="}, "fused_ops": {"list": {"s": ["Qmlhc0FkZA=="]}}, "dilations": {"list": {"i": ["1", "1", "1", "1"]}}, "T": {"type": "DT_FLOAT"}}}, {"name": "BoxPredictor_0/Shape", "op": "Shape", "input": ["FeatureExtractor/MobilenetV2/expanded_conv_13/expand/act_quant/FakeQuantWithMinMaxVars"], "attr": {"out_type": {"type": "DT_INT32"}, "T": {"type": "DT_FLOAT"}}}, {"name": "FeatureExtractor/MobilenetV2/expanded_conv_13/depthwise/depthwise_Fold", "op": "DepthwiseConv2dNative", "input": ["FeatureExtractor/MobilenetV2/expanded_conv_13/expand/act_quant/FakeQuantWithMinMaxVars", "FeatureExtractor/MobilenetV2/expanded_conv_13/depthwise/weights_quant/FakeQuantWithMinMaxVars"], "attr": {"strides": {"list": {"i": ["1", "2", "2", "1"]}}, "data_format": {"s": "TkhXQw=="}, "padding": {"s": "U0FNRQ=="}, "dilations": {"list": {"i": ["1", "1", "1", "1"]}}, "T": {"type": "DT_FLOAT"}}}, {"name": "BoxPredictor_0/BoxEncodingPredictor/act_quant/FakeQuantWithMinMaxVars", "op": "FakeQuantWithMinMaxVars", "input": ["BoxPredictor_0/BoxEncodingPredictor/BiasAdd", "BoxPredictor_0/BoxEncodingPredictor/act_quant/min", "BoxPredictor_0/BoxEncodingPredictor/act_quant/max"], "attr": {"narrow_range": {"b": false}, "num_bits": {"i": "8"}}}, {"name": "BoxPredictor_0/ClassPredictor/act_quant/FakeQuantWithMinMaxVars", "op": "FakeQuantWithMinMaxVars", "input": ["BoxPredictor_0/ClassPredictor/BiasAdd", "BoxPredictor_0/ClassPredictor/act_quant/min", "BoxPredictor_0/ClassPredictor/act_quant/max"], "attr": {"narrow_range": {"b": false}, "num_bits": {"i": "8"}}}, {"name": "BoxPredictor_0/strided_slice", "op": "StridedSlice", "input": ["BoxPredictor_0/Shape", "Preprocessor/map/strided_slice/stack", "Preprocessor/map/strided_slice/stack_1", "Preprocessor/map/strided_slice/stack_1"], "attr": {"Index": {"type": "DT_INT32"}, "T": {"type": "DT_INT32"}, "shrink_axis_mask": {"i": "1"}, "ellipsis_mask": {"i": "0"}, "begin_mask": {"i": "0"}, "new_axis_mask": {"i": "0"}, "end_mask": {"i": "0"}}}, {"name": "FeatureExtractor/MobilenetV2/expanded_conv_13/depthwise/add_fold", "op": "Add", "input": ["FeatureExtractor/MobilenetV2/expanded_conv_13/depthwise/BatchNorm_Fold/bias", "FeatureExtractor/MobilenetV2/expanded_conv_13/depthwise/depthwise_Fold"], "attr": {"T": {"type": "DT_FLOAT"}}}, {"name": "BoxPredictor_0/Reshape/shape", "op": "Pack", "input": ["BoxPredictor_0/strided_slice", "BoxPredictor_0/Reshape/shape/1", "Preprocessor/map/TensorArrayUnstack/range/delta", "BoxPredictor_0/Reshape/shape/3"], "attr": {"axis": {"i": "0"}, "N": {"i": "4"}, "T": {"type": "DT_INT32"}}}, {"name": "BoxPredictor_0/Reshape_1/shape", "op": "Pack", "input": ["BoxPredictor_0/strided_slice", "BoxPredictor_0/Reshape/shape/1", "BoxPredictor_0/Reshape_1/shape/2"], "attr": {"axis": {"i": "0"}, "N": {"i": "3"}, "T": {"type": "DT_INT32"}}}, {"name": "FeatureExtractor/MobilenetV2/expanded_conv_13/depthwise/Relu6", "op": "Relu6", "input": ["FeatureExtractor/MobilenetV2/expanded_conv_13/depthwise/add_fold"], "attr": {"T": {"type": "DT_FLOAT"}}}, {"name": "BoxPredictor_0/Reshape", "op": "Reshape", "input": ["BoxPredictor_0/BoxEncodingPredictor/act_quant/FakeQuantWithMinMaxVars", "BoxPredictor_0/Reshape/shape"], "attr": {"Tshape": {"type": "DT_INT32"}, "T": {"type": "DT_FLOAT"}}}, {"name": "BoxPredictor_0/Reshape_1", "op": "Reshape", "input": ["BoxPredictor_0/ClassPredictor/act_quant/FakeQuantWithMinMaxVars", "BoxPredictor_0/Reshape_1/shape"], "attr": {"T": {"type": "DT_FLOAT"}, "Tshape": {"type": "DT_INT32"}}}, {"name": "FeatureExtractor/MobilenetV2/expanded_conv_13/depthwise/act_quant/FakeQuantWithMinMaxVars", "op": "FakeQuantWithMinMaxVars", "input": ["FeatureExtractor/MobilenetV2/expanded_conv_13/depthwise/Relu6", "FeatureExtractor/MobilenetV2/expanded_conv_7/expand/act_quant/min", "FeatureExtractor/MobilenetV2/expanded_conv_7/expand/act_quant/max"], "attr": {"narrow_range": {"b": false}, "num_bits": {"i": "8"}}}, {"name": "FeatureExtractor/MobilenetV2/expanded_conv_13/project/Conv2D_Fold", "op": "Conv2D", "input": ["FeatureExtractor/MobilenetV2/expanded_conv_13/depthwise/act_quant/FakeQuantWithMinMaxVars", "FeatureExtractor/MobilenetV2/expanded_conv_13/project/weights_quant/FakeQuantWithMinMaxVars"], "device": "/device:CPU:0", "attr": {"padding": {"s": "U0FNRQ=="}, "dilations": {"list": {"i": ["1", "1", "1", "1"]}}, "T": {"type": "DT_FLOAT"}, "data_format": {"s": "TkhXQw=="}, "strides": {"list": {"i": ["1", "1", "1", "1"]}}, "explicit_paddings": {"list": {}}, "use_cudnn_on_gpu": {"b": true}}}, {"name": "FeatureExtractor/MobilenetV2/expanded_conv_13/project/add_fold", "op": "Add", "input": ["FeatureExtractor/MobilenetV2/expanded_conv_13/project/BatchNorm_Fold/bias", "FeatureExtractor/MobilenetV2/expanded_conv_13/project/Conv2D_Fold"], "attr": {"T": {"type": "DT_FLOAT"}}}, {"name": "FeatureExtractor/MobilenetV2/expanded_conv_13/project/act_quant/FakeQuantWithMinMaxVars", "op": "FakeQuantWithMinMaxVars", "input": ["FeatureExtractor/MobilenetV2/expanded_conv_13/project/add_fold", "FeatureExtractor/MobilenetV2/expanded_conv_13/project/act_quant/min", "FeatureExtractor/MobilenetV2/expanded_conv_13/project/act_quant/max"], "attr": {"num_bits": {"i": "8"}, "narrow_range": {"b": false}}}, {"name": "FeatureExtractor/MobilenetV2/expanded_conv_14/expand/Conv2D_Fold", "op": "Conv2D", "input": ["FeatureExtractor/MobilenetV2/expanded_conv_13/project/act_quant/FakeQuantWithMinMaxVars", "FeatureExtractor/MobilenetV2/expanded_conv_14/expand/weights_quant/FakeQuantWithMinMaxVars"], "device": "/device:CPU:0", "attr": {"strides": {"list": {"i": ["1", "1", "1", "1"]}}, "data_format": {"s": "TkhXQw=="}, "explicit_paddings": {"list": {}}, "use_cudnn_on_gpu": {"b": true}, "padding": {"s": "U0FNRQ=="}, "dilations": {"list": {"i": ["1", "1", "1", "1"]}}, "T": {"type": "DT_FLOAT"}}}, {"name": "FeatureExtractor/MobilenetV2/expanded_conv_14/expand/add_fold", "op": "Add", "input": ["FeatureExtractor/MobilenetV2/expanded_conv_14/expand/BatchNorm_Fold/bias", "FeatureExtractor/MobilenetV2/expanded_conv_14/expand/Conv2D_Fold"], "attr": {"T": {"type": "DT_FLOAT"}}}, {"name": "FeatureExtractor/MobilenetV2/expanded_conv_14/expand/Relu6", "op": "Relu6", "input": ["FeatureExtractor/MobilenetV2/expanded_conv_14/expand/add_fold"], "attr": {"T": {"type": "DT_FLOAT"}}}, {"name": "FeatureExtractor/MobilenetV2/expanded_conv_14/expand/act_quant/FakeQuantWithMinMaxVars", "op": "FakeQuantWithMinMaxVars", "input": ["FeatureExtractor/MobilenetV2/expanded_conv_14/expand/Relu6", "FeatureExtractor/MobilenetV2/expanded_conv_7/expand/act_quant/min", "FeatureExtractor/MobilenetV2/expanded_conv_7/expand/act_quant/max"], "attr": {"narrow_range": {"b": false}, "num_bits": {"i": "8"}}}, {"name": "FeatureExtractor/MobilenetV2/expanded_conv_14/depthwise/depthwise_Fold", "op": "DepthwiseConv2dNative", "input": ["FeatureExtractor/MobilenetV2/expanded_conv_14/expand/act_quant/FakeQuantWithMinMaxVars", "FeatureExtractor/MobilenetV2/expanded_conv_14/depthwise/weights_quant/FakeQuantWithMinMaxVars"], "attr": {"strides": {"list": {"i": ["1", "1", "1", "1"]}}, "data_format": {"s": "TkhXQw=="}, "padding": {"s": "U0FNRQ=="}, "dilations": {"list": {"i": ["1", "1", "1", "1"]}}, "T": {"type": "DT_FLOAT"}}}, {"name": "FeatureExtractor/MobilenetV2/expanded_conv_14/depthwise/add_fold", "op": "Add", "input": ["FeatureExtractor/MobilenetV2/expanded_conv_14/depthwise/BatchNorm_Fold/bias", "FeatureExtractor/MobilenetV2/expanded_conv_14/depthwise/depthwise_Fold"], "attr": {"T": {"type": "DT_FLOAT"}}}, {"name": "FeatureExtractor/MobilenetV2/expanded_conv_14/depthwise/Relu6", "op": "Relu6", "input": ["FeatureExtractor/MobilenetV2/expanded_conv_14/depthwise/add_fold"], "attr": {"T": {"type": "DT_FLOAT"}}}, {"name": "FeatureExtractor/MobilenetV2/expanded_conv_14/depthwise/act_quant/FakeQuantWithMinMaxVars", "op": "FakeQuantWithMinMaxVars", "input": ["FeatureExtractor/MobilenetV2/expanded_conv_14/depthwise/Relu6", "FeatureExtractor/MobilenetV2/expanded_conv_7/expand/act_quant/min", "FeatureExtractor/MobilenetV2/expanded_conv_7/expand/act_quant/max"], "attr": {"narrow_range": {"b": false}, "num_bits": {"i": "8"}}}, {"name": "FeatureExtractor/MobilenetV2/expanded_conv_14/project/Conv2D_Fold", "op": "Conv2D", "input": ["FeatureExtractor/MobilenetV2/expanded_conv_14/depthwise/act_quant/FakeQuantWithMinMaxVars", "FeatureExtractor/MobilenetV2/expanded_conv_14/project/weights_quant/FakeQuantWithMinMaxVars"], "device": "/device:CPU:0", "attr": {"dilations": {"list": {"i": ["1", "1", "1", "1"]}}, "T": {"type": "DT_FLOAT"}, "strides": {"list": {"i": ["1", "1", "1", "1"]}}, "data_format": {"s": "TkhXQw=="}, "use_cudnn_on_gpu": {"b": true}, "explicit_paddings": {"list": {}}, "padding": {"s": "U0FNRQ=="}}}, {"name": "FeatureExtractor/MobilenetV2/expanded_conv_14/project/add_fold", "op": "Add", "input": ["FeatureExtractor/MobilenetV2/expanded_conv_14/project/BatchNorm_Fold/bias", "FeatureExtractor/MobilenetV2/expanded_conv_14/project/Conv2D_Fold"], "attr": {"T": {"type": "DT_FLOAT"}}}, {"name": "FeatureExtractor/MobilenetV2/expanded_conv_14/project/act_quant/FakeQuantWithMinMaxVars", "op": "FakeQuantWithMinMaxVars", "input": ["FeatureExtractor/MobilenetV2/expanded_conv_14/project/add_fold", "FeatureExtractor/MobilenetV2/expanded_conv_14/project/act_quant/min", "FeatureExtractor/MobilenetV2/expanded_conv_14/project/act_quant/max"], "attr": {"num_bits": {"i": "8"}, "narrow_range": {"b": false}}}, {"name": "FeatureExtractor/MobilenetV2/expanded_conv_14/add", "op": "AddV2", "input": ["FeatureExtractor/MobilenetV2/expanded_conv_13/project/act_quant/FakeQuantWithMinMaxVars", "FeatureExtractor/MobilenetV2/expanded_conv_14/project/act_quant/FakeQuantWithMinMaxVars"], "attr": {"T": {"type": "DT_FLOAT"}}}, {"name": "FeatureExtractor/MobilenetV2/expanded_conv_14/post_activation_bypass_quant/FakeQuantWithMinMaxVars", "op": "FakeQuantWithMinMaxVars", "input": ["FeatureExtractor/MobilenetV2/expanded_conv_14/add", "FeatureExtractor/MobilenetV2/expanded_conv_14/post_activation_bypass_quant/min", "FeatureExtractor/MobilenetV2/expanded_conv_14/post_activation_bypass_quant/max"], "attr": {"narrow_range": {"b": false}, "num_bits": {"i": "8"}}}, {"name": "FeatureExtractor/MobilenetV2/expanded_conv_15/expand/Conv2D_Fold", "op": "Conv2D", "input": ["FeatureExtractor/MobilenetV2/expanded_conv_14/post_activation_bypass_quant/FakeQuantWithMinMaxVars", "FeatureExtractor/MobilenetV2/expanded_conv_15/expand/weights_quant/FakeQuantWithMinMaxVars"], "device": "/device:CPU:0", "attr": {"dilations": {"list": {"i": ["1", "1", "1", "1"]}}, "T": {"type": "DT_FLOAT"}, "strides": {"list": {"i": ["1", "1", "1", "1"]}}, "data_format": {"s": "TkhXQw=="}, "explicit_paddings": {"list": {}}, "use_cudnn_on_gpu": {"b": true}, "padding": {"s": "U0FNRQ=="}}}, {"name": "FeatureExtractor/MobilenetV2/expanded_conv_15/expand/add_fold", "op": "Add", "input": ["FeatureExtractor/MobilenetV2/expanded_conv_15/expand/BatchNorm_Fold/bias", "FeatureExtractor/MobilenetV2/expanded_conv_15/expand/Conv2D_Fold"], "attr": {"T": {"type": "DT_FLOAT"}}}, {"name": "FeatureExtractor/MobilenetV2/expanded_conv_15/expand/Relu6", "op": "Relu6", "input": ["FeatureExtractor/MobilenetV2/expanded_conv_15/expand/add_fold"], "attr": {"T": {"type": "DT_FLOAT"}}}, {"name": "FeatureExtractor/MobilenetV2/expanded_conv_15/expand/act_quant/FakeQuantWithMinMaxVars", "op": "FakeQuantWithMinMaxVars", "input": ["FeatureExtractor/MobilenetV2/expanded_conv_15/expand/Relu6", "FeatureExtractor/MobilenetV2/expanded_conv_7/expand/act_quant/min", "FeatureExtractor/MobilenetV2/expanded_conv_7/expand/act_quant/max"], "attr": {"narrow_range": {"b": false}, "num_bits": {"i": "8"}}}, {"name": "FeatureExtractor/MobilenetV2/expanded_conv_15/depthwise/depthwise_Fold", "op": "DepthwiseConv2dNative", "input": ["FeatureExtractor/MobilenetV2/expanded_conv_15/expand/act_quant/FakeQuantWithMinMaxVars", "FeatureExtractor/MobilenetV2/expanded_conv_15/depthwise/weights_quant/FakeQuantWithMinMaxVars"], "attr": {"padding": {"s": "U0FNRQ=="}, "dilations": {"list": {"i": ["1", "1", "1", "1"]}}, "T": {"type": "DT_FLOAT"}, "strides": {"list": {"i": ["1", "1", "1", "1"]}}, "data_format": {"s": "TkhXQw=="}}}, {"name": "FeatureExtractor/MobilenetV2/expanded_conv_15/depthwise/add_fold", "op": "Add", "input": ["FeatureExtractor/MobilenetV2/expanded_conv_15/depthwise/BatchNorm_Fold/bias", "FeatureExtractor/MobilenetV2/expanded_conv_15/depthwise/depthwise_Fold"], "attr": {"T": {"type": "DT_FLOAT"}}}, {"name": "FeatureExtractor/MobilenetV2/expanded_conv_15/depthwise/Relu6", "op": "Relu6", "input": ["FeatureExtractor/MobilenetV2/expanded_conv_15/depthwise/add_fold"], "attr": {"T": {"type": "DT_FLOAT"}}}, {"name": "FeatureExtractor/MobilenetV2/expanded_conv_15/depthwise/act_quant/FakeQuantWithMinMaxVars", "op": "FakeQuantWithMinMaxVars", "input": ["FeatureExtractor/MobilenetV2/expanded_conv_15/depthwise/Relu6", "FeatureExtractor/MobilenetV2/expanded_conv_7/expand/act_quant/min", "FeatureExtractor/MobilenetV2/expanded_conv_7/expand/act_quant/max"], "attr": {"narrow_range": {"b": false}, "num_bits": {"i": "8"}}}, {"name": "FeatureExtractor/MobilenetV2/expanded_conv_15/project/Conv2D_Fold", "op": "Conv2D", "input": ["FeatureExtractor/MobilenetV2/expanded_conv_15/depthwise/act_quant/FakeQuantWithMinMaxVars", "FeatureExtractor/MobilenetV2/expanded_conv_15/project/weights_quant/FakeQuantWithMinMaxVars"], "device": "/device:CPU:0", "attr": {"dilations": {"list": {"i": ["1", "1", "1", "1"]}}, "T": {"type": "DT_FLOAT"}, "strides": {"list": {"i": ["1", "1", "1", "1"]}}, "data_format": {"s": "TkhXQw=="}, "explicit_paddings": {"list": {}}, "use_cudnn_on_gpu": {"b": true}, "padding": {"s": "U0FNRQ=="}}}, {"name": "FeatureExtractor/MobilenetV2/expanded_conv_15/project/add_fold", "op": "Add", "input": ["FeatureExtractor/MobilenetV2/expanded_conv_15/project/BatchNorm_Fold/bias", "FeatureExtractor/MobilenetV2/expanded_conv_15/project/Conv2D_Fold"], "attr": {"T": {"type": "DT_FLOAT"}}}, {"name": "FeatureExtractor/MobilenetV2/expanded_conv_15/project/act_quant/FakeQuantWithMinMaxVars", "op": "FakeQuantWithMinMaxVars", "input": ["FeatureExtractor/MobilenetV2/expanded_conv_15/project/add_fold", "FeatureExtractor/MobilenetV2/expanded_conv_15/project/act_quant/min", "FeatureExtractor/MobilenetV2/expanded_conv_15/project/act_quant/max"], "attr": {"num_bits": {"i": "8"}, "narrow_range": {"b": false}}}, {"name": "FeatureExtractor/MobilenetV2/expanded_conv_15/add", "op": "AddV2", "input": ["FeatureExtractor/MobilenetV2/expanded_conv_14/post_activation_bypass_quant/FakeQuantWithMinMaxVars", "FeatureExtractor/MobilenetV2/expanded_conv_15/project/act_quant/FakeQuantWithMinMaxVars"], "attr": {"T": {"type": "DT_FLOAT"}}}, {"name": "FeatureExtractor/MobilenetV2/expanded_conv_15/post_activation_bypass_quant/FakeQuantWithMinMaxVars", "op": "FakeQuantWithMinMaxVars", "input": ["FeatureExtractor/MobilenetV2/expanded_conv_15/add", "FeatureExtractor/MobilenetV2/expanded_conv_15/post_activation_bypass_quant/min", "FeatureExtractor/MobilenetV2/expanded_conv_15/post_activation_bypass_quant/max"], "attr": {"narrow_range": {"b": false}, "num_bits": {"i": "8"}}}, {"name": "FeatureExtractor/MobilenetV2/expanded_conv_16/expand/Conv2D_Fold", "op": "Conv2D", "input": ["FeatureExtractor/MobilenetV2/expanded_conv_15/post_activation_bypass_quant/FakeQuantWithMinMaxVars", "FeatureExtractor/MobilenetV2/expanded_conv_16/expand/weights_quant/FakeQuantWithMinMaxVars"], "device": "/device:CPU:0", "attr": {"dilations": {"list": {"i": ["1", "1", "1", "1"]}}, "T": {"type": "DT_FLOAT"}, "strides": {"list": {"i": ["1", "1", "1", "1"]}}, "data_format": {"s": "TkhXQw=="}, "use_cudnn_on_gpu": {"b": true}, "explicit_paddings": {"list": {}}, "padding": {"s": "U0FNRQ=="}}}, {"name": "FeatureExtractor/MobilenetV2/expanded_conv_16/expand/add_fold", "op": "Add", "input": ["FeatureExtractor/MobilenetV2/expanded_conv_16/expand/BatchNorm_Fold/bias", "FeatureExtractor/MobilenetV2/expanded_conv_16/expand/Conv2D_Fold"], "attr": {"T": {"type": "DT_FLOAT"}}}, {"name": "FeatureExtractor/MobilenetV2/expanded_conv_16/expand/Relu6", "op": "Relu6", "input": ["FeatureExtractor/MobilenetV2/expanded_conv_16/expand/add_fold"], "attr": {"T": {"type": "DT_FLOAT"}}}, {"name": "FeatureExtractor/MobilenetV2/expanded_conv_16/expand/act_quant/FakeQuantWithMinMaxVars", "op": "FakeQuantWithMinMaxVars", "input": ["FeatureExtractor/MobilenetV2/expanded_conv_16/expand/Relu6", "FeatureExtractor/MobilenetV2/expanded_conv_7/expand/act_quant/min", "FeatureExtractor/MobilenetV2/expanded_conv_7/expand/act_quant/max"], "attr": {"narrow_range": {"b": false}, "num_bits": {"i": "8"}}}, {"name": "FeatureExtractor/MobilenetV2/expanded_conv_16/depthwise/depthwise_Fold", "op": "DepthwiseConv2dNative", "input": ["FeatureExtractor/MobilenetV2/expanded_conv_16/expand/act_quant/FakeQuantWithMinMaxVars", "FeatureExtractor/MobilenetV2/expanded_conv_16/depthwise/weights_quant/FakeQuantWithMinMaxVars"], "attr": {"strides": {"list": {"i": ["1", "1", "1", "1"]}}, "data_format": {"s": "TkhXQw=="}, "padding": {"s": "U0FNRQ=="}, "dilations": {"list": {"i": ["1", "1", "1", "1"]}}, "T": {"type": "DT_FLOAT"}}}, {"name": "FeatureExtractor/MobilenetV2/expanded_conv_16/depthwise/add_fold", "op": "Add", "input": ["FeatureExtractor/MobilenetV2/expanded_conv_16/depthwise/BatchNorm_Fold/bias", "FeatureExtractor/MobilenetV2/expanded_conv_16/depthwise/depthwise_Fold"], "attr": {"T": {"type": "DT_FLOAT"}}}, {"name": "FeatureExtractor/MobilenetV2/expanded_conv_16/depthwise/Relu6", "op": "Relu6", "input": ["FeatureExtractor/MobilenetV2/expanded_conv_16/depthwise/add_fold"], "attr": {"T": {"type": "DT_FLOAT"}}}, {"name": "FeatureExtractor/MobilenetV2/expanded_conv_16/depthwise/act_quant/FakeQuantWithMinMaxVars", "op": "FakeQuantWithMinMaxVars", "input": ["FeatureExtractor/MobilenetV2/expanded_conv_16/depthwise/Relu6", "FeatureExtractor/MobilenetV2/expanded_conv_7/expand/act_quant/min", "FeatureExtractor/MobilenetV2/expanded_conv_7/expand/act_quant/max"], "attr": {"narrow_range": {"b": false}, "num_bits": {"i": "8"}}}, {"name": "FeatureExtractor/MobilenetV2/expanded_conv_16/project/Conv2D_Fold", "op": "Conv2D", "input": ["FeatureExtractor/MobilenetV2/expanded_conv_16/depthwise/act_quant/FakeQuantWithMinMaxVars", "FeatureExtractor/MobilenetV2/expanded_conv_16/project/weights_quant/FakeQuantWithMinMaxVars"], "device": "/device:CPU:0", "attr": {"padding": {"s": "U0FNRQ=="}, "dilations": {"list": {"i": ["1", "1", "1", "1"]}}, "T": {"type": "DT_FLOAT"}, "strides": {"list": {"i": ["1", "1", "1", "1"]}}, "data_format": {"s": "TkhXQw=="}, "use_cudnn_on_gpu": {"b": true}, "explicit_paddings": {"list": {}}}}, {"name": "FeatureExtractor/MobilenetV2/expanded_conv_16/project/add_fold", "op": "Add", "input": ["FeatureExtractor/MobilenetV2/expanded_conv_16/project/BatchNorm_Fold/bias", "FeatureExtractor/MobilenetV2/expanded_conv_16/project/Conv2D_Fold"], "attr": {"T": {"type": "DT_FLOAT"}}}, {"name": "FeatureExtractor/MobilenetV2/expanded_conv_16/project/act_quant/FakeQuantWithMinMaxVars", "op": "FakeQuantWithMinMaxVars", "input": ["FeatureExtractor/MobilenetV2/expanded_conv_16/project/add_fold", "FeatureExtractor/MobilenetV2/expanded_conv_16/project/act_quant/min", "FeatureExtractor/MobilenetV2/expanded_conv_16/project/act_quant/max"], "attr": {"num_bits": {"i": "8"}, "narrow_range": {"b": false}}}, {"name": "FeatureExtractor/MobilenetV2/Conv_1/Conv2D_Fold", "op": "Conv2D", "input": ["FeatureExtractor/MobilenetV2/expanded_conv_16/project/act_quant/FakeQuantWithMinMaxVars", "FeatureExtractor/MobilenetV2/Conv_1/weights_quant/FakeQuantWithMinMaxVars"], "device": "/device:CPU:0", "attr": {"padding": {"s": "U0FNRQ=="}, "dilations": {"list": {"i": ["1", "1", "1", "1"]}}, "T": {"type": "DT_FLOAT"}, "data_format": {"s": "TkhXQw=="}, "strides": {"list": {"i": ["1", "1", "1", "1"]}}, "explicit_paddings": {"list": {}}, "use_cudnn_on_gpu": {"b": true}}}, {"name": "FeatureExtractor/MobilenetV2/Conv_1/add_fold", "op": "Add", "input": ["FeatureExtrac…
2", "quantization": {"min": 4.117630958557129, "scale": 1.0, "dtype": "uint8"}}, {"name": "BoxPredictor_5/BoxEncodingPredictor/act_quant/min", "shape": [], "dtype": "float32", "quantization": {"min": -3.7407305240631104, "scale": 1.0, "dtype": "uint8"}}, {"name": "BoxPredictor_5/BoxEncodingPredictor/act_quant/max", "shape": [], "dtype": "float32", "quantization": {"min": 2.1121163368225098, "scale": 1.0, "dtype": "uint8"}}, {"name": "Preprocessor/mul/x", "shape": [], "dtype": "float32", "quantization": {"min": 0.007843137718737125, "scale": 1.0, "dtype": "uint8"}}, {"name": "Preprocessor/sub/y", "shape": [], "dtype": "float32", "quantization": {"min": 1.0, "scale": 1.0, "dtype": "uint8"}}, {"name": "FeatureExtractor/MobilenetV2/expanded_conv_7/expand/weights_quant/FakeQuantWithMinMaxVars", "shape": [1, 1, 64, 384], "dtype": "float32", "quantization": {"min": -0.2529642233077217, "scale": 0.001720845056515114, "dtype": "uint8"}}, {"name": "FeatureExtractor/MobilenetV2/expanded_conv_7/expand/act_quant/min", "shape": [], "dtype": "float32", "quantization": {"min": 0.0, "scale": 1.0, "dtype": "uint8"}}, {"name": "FeatureExtractor/MobilenetV2/expanded_conv_7/expand/act_quant/max", "shape": [], "dtype": "float32", "quantization": {"min": 5.999761581420898, "scale": 1.0, "dtype": "uint8"}}, {"name": "FeatureExtractor/MobilenetV2/layer_19_1_Conv2d_5_1x1_64/weights_quant/FakeQuantWithMinMaxVars", "shape": [1, 1, 256, 64], "dtype": "float32", "quantization": {"min": -0.8245736559232075, "scale": 0.00970086654027303, "dtype": "uint8"}}, {"name": "FeatureExtractor/MobilenetV2/expanded_conv_7/depthwise/weights_quant/FakeQuantWithMinMaxVars", "shape": [3, 3, 384, 1], "dtype": "float32", "quantization": {"min": -7.856676603766049, "scale": 0.042932659036972944, "dtype": "uint8"}}, {"name": "FeatureExtractor/MobilenetV2/layer_19_1_Conv2d_5_1x1_64/act_quant/max", "shape": [], "dtype": "float32", "quantization": {"min": 5.268488883972168, "scale": 1.0, "dtype": "uint8"}}, {"name": "FeatureExtractor/MobilenetV2/expanded_conv_8/expand/weights_quant/FakeQuantWithMinMaxVars", "shape": [1, 1, 64, 384], "dtype": "float32", "quantization": {"min": -0.3276444977405024, "scale": 0.0028245215322457106, "dtype": "uint8"}}, {"name": "FeatureExtractor/MobilenetV2/layer_19_2_Conv2d_5_3x3_s2_128/weights_quant/FakeQuantWithMinMaxVars", "shape": [3, 3, 64, 128], "dtype": "float32", "quantization": {"min": -1.4283604551764095, "scale": 0.012868112208796483, "dtype": "uint8"}}, {"name": "FeatureExtractor/MobilenetV2/expanded_conv_8/depthwise/weights_quant/FakeQuantWithMinMaxVars", "shape": [3, 3, 384, 1], "dtype": "float32", "quantization": {"min": -2.752717896068797, "scale": 0.034844530329984774, "dtype": "uint8"}}, {"name": "FeatureExtractor/MobilenetV2/expanded_conv_9/expand/weights_quant/FakeQuantWithMinMaxVars", "shape": [1, 1, 64, 384], "dtype": "float32", "quantization": {"min": -0.24893434544404347, "scale": 0.002091885255832298, "dtype": "uint8"}}, {"name": "FeatureExtractor/MobilenetV2/expanded_conv_9/depthwise/weights_quant/FakeQuantWithMinMaxVars", "shape": [3, 3, 384, 1], "dtype": "float32", "quantization": {"min": -4.834568031161439, "scale": 0.03898845186420515, "dtype": "uint8"}}, {"name": "FeatureExtractor/MobilenetV2/expanded_conv_10/expand/weights_quant/FakeQuantWithMinMaxVars", "shape": [1, 1, 64, 384], "dtype": "float32", "quantization": {"min": -0.12945608134363212, "scale": 0.0010440006559970332, "dtype": "uint8"}}, {"name": "BoxPredictor_0/BoxEncodingPredictor/weights_quant/FakeQuantWithMinMaxVars", "shape": [1, 1, 576, 12], "dtype": "float32", "quantization": {"min": -1.1025728571648692, "scale": 0.01002338961058972, "dtype": "uint8"}}, {"name": "FeatureExtractor/MobilenetV2/expanded_conv_10/depthwise/weights_quant/FakeQuantWithMinMaxVars", "shape": [3, 3, 384, 1], "dtype": "float32", "quantization": {"min": -2.277189105164771, "scale": 0.035033678540996475, "dtype": "uint8"}}, {"name": "BoxPredictor_0/BoxEncodingPredictor/act_quant/min", "shape": [], "dtype": "float32", "quantization": {"min": -16.34806251525879, "scale": 1.0, "dtype": "uint8"}}, {"name": "BoxPredictor_0/BoxEncodingPredictor/act_quant/max", "shape": [], "dtype": "float32", "quantization": {"min": 6.943553924560547, "scale": 1.0, "dtype": "uint8"}}, {"name": "FeatureExtractor/MobilenetV2/expanded_conv_10/project/weights_quant/FakeQuantWithMinMaxVars", "shape": [1, 1, 384, 96], "dtype": "float32", "quantization": {"min": -1.6562849306592755, "scale": 0.010351780816620472, "dtype": "uint8"}}, {"name": "FeatureExtractor/MobilenetV2/expanded_conv_10/project/act_quant/min", "shape": [], "dtype": "float32", "quantization": {"min": -23.456113815307617, "scale": 1.0, "dtype": "uint8"}}, {"name": "FeatureExtractor/MobilenetV2/expanded_conv_10/project/act_quant/max", "shape": [], "dtype": "float32", "quantization": {"min": 18.579378128051758, "scale": 1.0, "dtype": "uint8"}}, {"name": "BoxPredictor_0/ClassPredictor/weights_quant/FakeQuantWithMinMaxVars", "shape": [1, 1, 576, 273], "dtype": "float32", "quantization": {"min": -1.1499937281889074, "scale": 0.006609159357407514, "dtype": "uint8"}}, {"name": "FeatureExtractor/MobilenetV2/expanded_conv_11/expand/weights_quant/FakeQuantWithMinMaxVars", "shape": [1, 1, 96, 576], "dtype": "float32", "quantization": {"min": -0.2739587303470163, "scale": 0.002029323928496417, "dtype": "uint8"}}, {"name": "BoxPredictor_0/ClassPredictor/act_quant/min", "shape": [], "dtype": "float32", "quantization": {"min": -52.11186981201172, "scale": 1.0, "dtype": "uint8"}}, {"name": "BoxPredictor_0/ClassPredictor/act_quant/max", "shape": [], "dtype": "float32", "quantization": {"min": 8.585887908935547, "scale": 1.0, "dtype": "uint8"}}, {"name": "FeatureExtractor/MobilenetV2/expanded_conv_11/depthwise/weights_quant/FakeQuantWithMinMaxVars", "shape": [3, 3, 576, 1], "dtype": "float32", "quantization": {"min": -4.7432344474044505, "scale": 0.043120313158222276, "dtype": "uint8"}}, {"name": "BoxPredictor_1/BoxEncodingPredictor/weights_quant/FakeQuantWithMinMaxVars", "shape": [1, 1, 1280, 24], "dtype": "float32", "quantization": {"min": -0.6912980247946346, "scale": 0.005237106248444202, "dtype": "uint8"}}, {"name": "FeatureExtractor/MobilenetV2/expanded_conv_12/expand/weights_quant/FakeQuantWithMinMaxVars", "shape": [1, 1, 96, 576], "dtype": "float32", "quantization": {"min": -0.1270871887020036, "scale": 0.0011989357424717322, "dtype": "uint8"}}, {"name": "BoxPredictor_1/BoxEncodingPredictor/act_quant/min", "shape": [], "dtype": "float32", "quantization": {"min": -5.556341648101807, "scale": 1.0, "dtype": "uint8"}}, {"name": "BoxPredictor_1/BoxEncodingPredictor/act_quant/max", "shape": [], "dtype": "float32", "quantization": {"min": 4.047954082489014, "scale": 1.0, "dtype": "uint8"}}, {"name": "FeatureExtractor/MobilenetV2/expanded_conv_12/depthwise/weights_quant/FakeQuantWithMinMaxVars", "shape": [3, 3, 576, 1], "dtype": "float32", "quantization": {"min": -3.1085305980607574, "scale": 0.029889717289045745, "dtype": "uint8"}}, {"name": "BoxPredictor_1/ClassPredictor/weights_quant/FakeQuantWithMinMaxVars", "shape": [1, 1, 1280, 546], "dtype": "float32", "quantization": {"min": -0.8452409926582785, "scale": 0.006261044390061322, "dtype": "uint8"}}, {"name": "FeatureExtractor/MobilenetV2/expanded_conv_13/expand/weights_quant/FakeQuantWithMinMaxVars", "shape": [1, 1, 96, 576], "dtype": "float32", "quantization": {"min": -0.19471708840014887, "scale": 0.0016785955896564558, "dtype": "uint8"}}, {"name": "BoxPredictor_1/ClassPredictor/act_quant/min", "shape": [], "dtype": "float32", "quantization": {"min": -73.4524917602539, "scale": 1.0, "dtype": "uint8"}}, {"name": "BoxPredictor_1/ClassPredictor/act_quant/max", "shape": [], "dtype": "float32", "quantization": {"min": 11.001404762268066, "scale": 1.0, "dtype": "uint8"}}, {"name": "FeatureExtractor/MobilenetV2/expanded_conv_13/depthwise/weights_quant/FakeQuantWithMinMaxVars", "shape": [3, 3, 576, 1], "dtype": "float32", "quantization": {"min": -8.076031535279517, "scale": 0.06460825228223614, "dtype": "uint8"}}, {"name": "FeatureExtractor/MobilenetV2/expanded_conv_13/project/weights_quant/FakeQuantWithMinMaxVars", "shape": [1, 1, 576, 160], "dtype": "float32", "quantization": {"min": -0.6433092528698491, "scale": 0.004317511764227175, "dtype": "uint8"}}, {"name": "FeatureExtractor/MobilenetV2/expanded_conv_13/project/act_quant/min", "shape": [], "dtype": "float32", "quantization": {"min": -24.040224075317383, "scale": 1.0, "dtype": "uint8"}}, {"name": "FeatureExtractor/MobilenetV2/expanded_conv_13/project/act_quant/max", "shape": [], "dtype": "float32", "quantization": {"min": 15.725638389587402, "scale": 1.0, "dtype": "uint8"}}, {"name": "BoxPredictor_2/BoxEncodingPredictor/weights_quant/FakeQuantWithMinMaxVars", "shape": [1, 1, 512, 24], "dtype": "float32", "quantization": {"min": -0.48677741721564644, "scale": 0.004232847106223013, "dtype": "uint8"}}, {"name": "BoxPredictor_2/BoxEncodingPredictor/act_quant/min", "shape": [], "dtype": "float32", "quantization": {"min": -3.8137917518615723, "scale": 1.0, "dtype": "uint8"}}, {"name": "FeatureExtractor/MobilenetV2/expanded_conv_14/expand/weights_quant/FakeQuantWithMinMaxVars", "shape": [1, 1, 160, 960], "dtype": "float32", "quantization": {"min": -0.6073634326457977, "scale": 0.003969695638207828, "dtype": "uint8"}}, {"name": "BoxPredictor_2/BoxEncodingPredictor/act_quant/max", "shape": [], "dtype": "float32", "quantization": {"min": 3.768465757369995, "scale": 1.0, "dtype": "uint8"}}, {"name": "FeatureExtractor/MobilenetV2/expanded_conv_14/depthwise/weights_quant/FakeQuantWithMinMaxVars", "shape": [3, 3, 960, 1], "dtype": "float32", "quantization": {"min": -7.320817209692562, "scale": 0.04000446562673531, "dtype": "uint8"}}, {"name": "BoxPredictor_2/ClassPredictor/weights_quant/FakeQuantWithMinMaxVars", "shape": [1, 1, 512, 546], "dtype": "float32", "quantization": {"min": -0.6256036440531413, "scale": 0.0046000267945083915, "dtype": "uint8"}}, {"name": "BoxPredictor_0/BoxEncodingPredictor/biases", "shape": [12], "dtype": "float32", "quantization": {"min": -2.232528973560707, "scale": 0.011332634383556889, "dtype": "uint8"}}, {"name": "BoxPredictor_0/Reshape/shape/1", "shape": [], "dtype": "int32"}, {"name": "BoxPredictor_0/Reshape/shape/3", "shape": [], "dtype": "int32"}, {"name": "BoxPredictor_0/ClassPredictor/biases", "shape": [273], "dtype": "float32", "quantization": {"min": -5.304382805730783, "scale": 0.030310758889890186, "dtype": "uint8"}}, {"name": "BoxPredictor_2/ClassPredictor/act_quant/min", "shape": [], "dtype": "float32", "quantization": {"min": -26.484113693237305, "scale": 1.0, "dtype": "uint8"}}, {"name": "BoxPredictor_0/Reshape_1/shape/2", "shape": [], "dtype": "int32"}, {"name": "BoxPredictor_1/BoxEncodingPredictor/biases", "shape": [24], "dtype": "float32", "quantization": {"min": -1.1959721214631025, "scale": 0.009723350581000833, "dtype": "uint8"}}, {"name": "FeatureExtractor/MobilenetV2/expanded_conv_15/expand/weights_quant/FakeQuantWithMinMaxVars", "shape": [1, 1, 160, 960], "dtype": "float32", "quantization": {"min": -0.2869703545289881, "scale": 0.001992849684229084, "dtype": "uint8"}}, {"name": "BoxPredictor_1/ClassPredictor/biases", "shape": [546], "dtype": "float32", "quantization": {"min": -3.0907639821370445, "scale": 0.02272620575100768, "dtype": "uint8"}}, {"name": "BoxPredictor_2/BoxEncodingPredictor/biases", "shape": [24], "dtype": "float32", "quantization": {"min": -0.9602887022729013, "scale": 0.008729897293390012, "dtype": "uint8"}}, {"name": "BoxPredictor_2/ClassPredictor/biases", "shape": [546], "dtype": "float32", "quantization": {"min": -1.75441919261334, "scale": 0.01927933178695978, "dtype": "uint8"}}, {"name": "BoxPredictor_2/ClassPredictor/act_quant/max", "shape": [], "dtype": "float32", "quantization": {"min": 6.623620510101318, "scale": 1.0, "dtype": "uint8"}}, {"name": "BoxPredictor_3/BoxEncodingPredictor/biases", "shape": [24], "dtype": "float32", "quantization": {"min": -1.4507106294818954, "scale": 0.010826198727476831, "dtype": "uint8"}}, {"name": "BoxPredictor_3/ClassPredictor/biases", "shape": [546], "dtype": "float32", "quantization": {"min": -1.1409481890061324, "scale": 0.01444238213931813, "dtype": "uint8"}}, {"name": "BoxPredictor_4/BoxEncodingPredictor/biases", "shape": [24], "dtype": "float32", "quantization": {"min": -0.9955528358618418, "scale": 0.005323811956480438, "dtype": "uint8"}}, {"name": "BoxPredictor_4/ClassPredictor/biases", "shape": [546], "dtype": "float32", "quantization": {"min": -0.4893372830222635, "scale": 0.008155621383704391, "dtype": "uint8"}}, {"name": "FeatureExtractor/MobilenetV2/expanded_conv_15/depthwise/weights_quant/FakeQuantWithMinMaxVars", "shape": [3, 3, 960, 1], "dtype": "float32", "quantization": {"min": -3.6626602789934943, "scale": 0.02508671423968147, "dtype": "uint8"}}, {"name": "BoxPredictor_5/BoxEncodingPredictor/weights_quant/FakeQuantWithMinMaxVars", "shape": [1, 1, 128, 24], "dtype": "float32", "quantization": {"min": -0.2080856638796189, "scale": 0.00239178923999562, "dtype": "uint8"}}, {"name": "BoxPredictor_5/BoxEncodingPredictor/biases", "shape": [24], "dtype": "float32", "quantization": {"min": -1.664180250261344, "scale": 0.012703666032529344, "dtype": "uint8"}}, {"name": "BoxPredictor_5/ClassPredictor/biases", "shape": [546], "dtype": "float32", "quantization": {"min": -0.7944553375244141, "scale": 0.00827557643254598, "dtype": "uint8"}}, {"name": "Postprocessor/strided_slice_1/stack_1", "shape": [1], "dtype": "int32"}, {"name": "Postprocessor/Reshape/shape", "shape": [2], "dtype": "int32"}, {"name": "Postprocessor/Decode/get_center_coordinates_and_sizes/transpose/perm", "shape": [2], "dtype": "int32"}, {"name": "Postprocessor/ExpandDims_1/dim", "shape": [], "dtype": "int32"}, {"name": "Postprocessor/Slice/begin", "shape": [3], "dtype": "int32"}, {"name": "Postprocessor/Slice/size", "shape": [3], "dtype": "int32"}, {"name": "BoxPredictor_5/ClassPredictor/weights_quant/FakeQuantWithMinMaxVars", "shape": [1, 1, 128, 546], "dtype": "float32", "quantization": {"min": -0.513057915837157, "scale": 0.0036910641427133598, "dtype": "uint8"}}, {"name": "BoxPredictor_5/ClassPredictor/act_quant/min", "shape": [], "dtype": "float32", "quantization": {"min": -16.64885139465332, "scale": 1.0, "dtype": "uint8"}}, {"name": "BoxPredictor_5/ClassPredictor/act_quant/max", "shape": [], "dtype": "float32", "quantization": {"min": 4.870372295379639, "scale": 1.0, "dtype": "uint8"}}, {"name": "FeatureExtractor/MobilenetV2/Conv/BatchNorm_Fold/bias", "shape": [32], "dtype": "float32", "quantization": {"min": -5.013319251116584, "scale": 0.03410421259262982, "dtype": "uint8"}}, {"name": "FeatureExtractor/MobilenetV2/expanded_conv/depthwise/BatchNorm_Fold/bias", "shape": [32], "dtype": "float32", "quantization": {"min": -1.7080856659833121, "scale": 0.040668706332936004, "dtype": "uint8"}}, {"name": "FeatureExtractor/MobilenetV2/expanded_conv/project/BatchNorm_Fold/bias", "shape": [16], "dtype": "float32", "quantization": {"min": -16.662277745265584, "scale": 0.12817136727127373, "dtype": "uint8"}}, {"name": "FeatureExtractor/MobilenetV2/expanded_conv_1/expand/BatchNorm_Fold/bias", "shape": [96], "dtype": "float32", "quantization": {"min": -2.374622188829908, "scale": 0.024480641121957816, "dtype": "uint8"}}, {"name": "FeatureExtractor/MobilenetV2/expanded_conv_1/depthwise/BatchNorm_Fold/bias", "shape": [96], "dtype": "float32", "quantization": {"min": -3.303616652769201, "scale": 0.04028800796060001, "dtype": "uint8"}}, {"name": "FeatureExtractor/MobilenetV2/expanded_conv_1/project/BatchNorm_Fold/bias", "shape": [24], "dtype": "float32", "quantization": {"min": -8.414787273780972, "scale": 0.058033015681248086, "dtype": "uint8"}}, {"name": "FeatureExtractor/MobilenetV2/expanded_conv_2/expand/BatchNorm_Fold/bias", "shape": [144], "dtype": "float32", "quantization": {"min": -2.181948007321825, "scale": 0.024794863719566195, "dtype": "uint8"}}, {"name": "FeatureExtractor/MobilenetV2/expanded_conv_2/depthwise/BatchNorm_Fold/bias", "shape": [144], "dtype": "float32", "quantization": {"min": -6.484679614796358, "scale": 0.04323119743197572, "dtype": "uint8"}}, {"name": "FeatureExtractor/MobilenetV2/expanded_conv_2/project/BatchNorm_Fold/bias", "shape": [24], "dtype": "float32", "quantization": {"min": -10.538093073227827, "scale": 0.08363565931133196, "dtype": "uint8"}}, {"name": "FeatureExtractor/MobilenetV2/expanded_conv_3/expand/BatchNorm_Fold/bias", "shape": [144], "dtype": "float32", "quantization": {"min": -2.2635335819393982, "scale": 0.025432961594824697, "dtype": "uint8"}}, {"name": "FeatureExtractor/MobilenetV2/expanded_conv_3/depthwise/BatchNorm_Fold/bias", "shape": [144], "dtype": "float32", "quantization": {"min": -2.1052145565257354, "scale": 0.043858636594286154, "dtype": "uint8"}}, {"name": "FeatureExtractor/MobilenetV2/expanded_conv_3/project/BatchNorm_Fold/bias", "shape": [32], "dtype": "float32", "quantization": {"min": -14.073259981940774, "scale": 0.10909503861969592, "dtype": "uint8"}}, {"name": "FeatureExtractor/MobilenetV2/expanded_conv_4/expand/BatchNorm_Fold/bias", "shape": [192], "dtype": "float32", "quantization": {"min": -0.9337189583217397, "scale": 0.02074931018492755, "dtype": "uint8"}}, {"name": "FeatureExtractor/MobilenetV2/expanded_conv_4/depthwise/BatchNorm_Fold/bias", "shape": [192], "dtype": "float32", "quantization": {"min": -4.550577051499311, "scale": 0.039229112512925095, "dtype": "uint8"}}, {"name": "FeatureExtractor/MobilenetV2/expanded_conv_4/project/BatchNorm_Fold/bias", "shape": [32], "dtype": "float32", "quantization": {"min": -7.460709111830767, "scale": 0.06431645786061006, "dtype": "uint8"}}, {"name": "FeatureExtractor/MobilenetV2/expanded_conv_5/expand/BatchNorm_Fold/bias", "shape": [192], "dtype": "float32", "quantization": {"min": -1.5661124435125613, "scale": 0.01598073921951593, "dtype": "uint8"}}, {"name": "FeatureExtractor/MobilenetV2/expanded_conv_5/depthwise/BatchNorm_Fold/bias", "shape": [192], "dtype": "float32", "quantization": {"min": -5.79070260478001, "scale": 0.042267902224671604, "dtype": "uint8"}}, {"name": "FeatureExtractor/MobilenetV2/expanded_conv_5/project/BatchNorm_Fold/bias", "shape": [32], "dtype": "float32", "quantization": {"min": -8.837912952198701, "scale": 0.08417059954474954, "dtype": "uint8"}}, {"name": "FeatureExtractor/MobilenetV2/expanded_conv_6/expand/BatchNorm_Fold/bias", "shape": [192], "dtype": "float32", "quantization": {"min": -1.8356193514431223, "scale": 0.01748208906136307, "dtype": "uint8"}}, {"name": "FeatureExtractor/MobilenetV2/expanded_conv_6/depthwise/BatchNorm_Fold/bias", "shape": [192], "dtype": "float32", "quantization": {"min": -2.833046707452512, "scale": 0.035413083843156404, "dtype": "uint8"}}, {"name": "FeatureExtractor/MobilenetV2/expanded_conv_6/project/BatchNorm_Fold/bias", "shape": [64], "dtype": "float32", "quantization": {"min": -11.906877091351678, "scale": 0.08885729172650506, "dtype": "uint8"}}, {"name": "FeatureExtractor/MobilenetV2/expanded_conv_7/expand/BatchNorm_Fold/bias", "shape": [384], "dtype": "float32", "quantization": {"min": -1.7621639204960242, "scale": 0.018166638355629115, "dtype": "uint8"}}, {"name": "FeatureExtractor/MobilenetV2/expanded_conv_7/depthwise/BatchNorm_Fold/bias", "shape": [384], "dtype": "float32", "quantization": {"min": -14.757416145474304, "scale": 0.08836776135014553, "dtype": "uint8"}}, {"name": "FeatureExtractor/MobilenetV2/expanded_conv_7/project/BatchNorm_Fold/bias", "shape": [64], "dtype": "float32", "quantization": {"min": -7.072437671586579, "scale": 0.057970800586775235, "dtype": "uint8"}}, {"name": "FeatureExtractor/MobilenetV2/expanded_conv_8/expand/BatchNorm_Fold/bias", "shape": [384], "dtype": "float32", "quantization": {"min": -1.237560864055858, "scale": 0.015278529185874789, "dtype": "uint8"}}, {"name": "FeatureExtractor/MobilenetV2/expanded_conv_8/depthwise/BatchNorm_Fold/bias", "shape": [384], "dtype": "float32", "quantization": {"min": -6.86772471409218, "scale": 0.051251676970837164, "dtype": "uint8"}}, {"name": "FeatureExtractor/MobilenetV2/expanded_conv_8/project/BatchNorm_Fold/bias", "shape": [64], "dtype": "float32", "quantization": {"min": -9.943543273327396, "scale": 0.08572020063213273, "dtype": "uint8"}}, {"name": "FeatureExtractor/MobilenetV2/expanded_conv_9/expand/BatchNorm_Fold/bias", "shape": [384], "dtype": "float32", "quantization": {"min": -2.069835064457912, "scale": 0.018816682404162836, "dtype": "uint8"}}, {"name": "FeatureExtractor/MobilenetV2/expanded_conv_9/depthwise/BatchNorm_Fold/bias", "shape": [384], "dtype": "float32", "quantization": {"min": -4.729204185336243, "scale": 0.03131923301547181, "dtype": "uint8"}}, {"name": "FeatureExtractor/MobilenetV2/expanded_conv_9/project/BatchNorm_Fold/bias", "shape": [64], "dtype": "float32", "quantization": {"min": -15.760166598301307, "scale": 0.11849749322031058, "dtype": "uint8"}}, {"name": "FeatureExtractor/MobilenetV2/expanded_conv_10/expand/BatchNorm_Fold/bias", "shape": [384], "dtype": "float32", "quantization": {"min": -2.6935924268236344, "scale": 0.026935924268236346, "dtype": "uint8"}}, {"name": "FeatureExtractor/MobilenetV2/expanded_conv_10/depthwise/BatchNorm_Fold/bias", "shape": [384], "dtype": "float32", "quantization": {"min": -4.721873705994849, "scale": 0.04001587886436313, "dtype": "uint8"}}, {"name": "FeatureExtractor/MobilenetV2/expanded_conv_10/project/BatchNorm_Fold/bias", "shape": [96], "dtype": "float32", "quantization": {"min": -7.228892760183296, "scale": 0.07018342485614851, "dtype": "uint8"}}, {"name": "FeatureExtractor/MobilenetV2/expanded_conv_11/expand/BatchNorm_Fold/bias", "shape": [576], "dtype": "float32", "quantization": {"min": -2.429864912407071, "scale": 0.01913279458588245, "dtype": "uint8"}}, {"name": "FeatureExtractor/MobilenetV2/expanded_conv_11/depthwise/BatchNorm_Fold/bias", "shape": [576], "dtype": "float32", "quantization": {"min": -5.578324463788201, "scale": 0.03443410162832223, "dtype": "uint8"}}, {"name": "FeatureExtractor/MobilenetV2/expanded_conv_11/project/BatchNorm_Fold/bias", "shape": [96], "dtype": "float32", "quantization": {"min": -8.953135535296271, "scale": 0.09043571247774011, "dtype": "uint8"}}, {"name": "FeatureExtractor/MobilenetV2/expanded_conv_12/expand/BatchNorm_Fold/bias", "shape": [576], "dtype": "float32", "quantization": {"min": -2.5036877202052694, "scale": 0.019560060314103667, "dtype": "uint8"}}, {"name": "FeatureExtractor/MobilenetV2/expanded_conv_12/depthwise/BatchNorm_Fold/bias", "shape": [576], "dtype": "float32", "quantization": {"min": -7.271188646204332, "scale": 0.04328088479883531, "dtype": "uint8"}}, {"name": "FeatureExtractor/MobilenetV2/expanded_conv_12/project/BatchNorm_Fold/bias", "shape": [96], "dtype": "float32", "quantization": {"min": -29.70730381385953, "scale": 0.18114209642597273, "dtype": "uint8"}}, {"name": "FeatureExtractor/MobilenetV2/expanded_conv_13/expand/BatchNorm_Fold/bias", "shape": [576], "dtype": "float32", "quantization": {"min": -5.0624170560462805, "scale": 0.022010508939331652, "dtype": "uint8"}}, {"name": "FeatureExtractor/MobilenetV2/expanded_conv_13/depthwise/BatchNorm_Fold/bias", "shape": [576], "dtype": "float32", "quantization": {"min": -3.0691864939296947, "scale": 0.026232363195980296, "dtype": "uint8"}}, {"name": "FeatureExtractor/MobilenetV2/expanded_conv_13/project/BatchNorm_Fold/bias", "shape": [160], "dtype": "float32", "quantization": {"min": -6.523754946390787, "scale": 0.045620663960774736, "dtype": "uint8"}}, {"name": "FeatureExtractor/MobilenetV2/expanded_conv_14/expand/BatchNorm_Fold/bias", "shape": [960], "dtype": "float32", "quantization": {"min": -1.5951021054211785, "scale": 0.01411594783558565, "dtype": "uint8"}}, {"name": "FeatureExtractor/MobilenetV2/expanded_conv_14/depthwise/BatchNorm_Fold/bias", "shape": [960], "dtype": "float32", "quantization": {"min": -4.26123878067615, "scale": 0.029387853659835515, "dtype": "uint8"}}, {"name": "FeatureExtractor/MobilenetV2/expanded_conv_14/project/BatchNorm_Fold/bias", "shape": [160], "dtype": "float32", "quantization": {"min": -5.56936305176978, "scale": 0.03978116465549843, "dtype": "uint8"}}, {"name": "FeatureExtractor/MobilenetV2/expanded_conv_15/expand/BatchNorm_Fold/bias", "shape": [960], "dtype": "float32", "quantization": {"min": -1.4610209586573581, "scale": 0.012381533547943713, "dtype": "uint8"}}, {"name": "FeatureExtractor/MobilenetV2/expanded_conv_15/depthwise/BatchNorm_Fold/bias", "shape": [960], "dtype": "float32", "quantization": {"min": -4.132883077509263, "scale": 0.02994842809789321, "dtype": "uint8"}}, {"name": "FeatureExtractor/MobilenetV2/expanded_conv_15/project/BatchNorm_Fold/bias", "shape": [160], "dtype": "float32", "quantization": {"min": -9.397353901582607, "scale": 0.0701295067282284, "dtype": "uint8"}}, {"name": "FeatureExtractor/MobilenetV2/expanded_conv_16/expand/BatchNorm_Fold/bias", "shape": [960], "dtype": "float32", "quantization": {"min": -2.1761173968221628, "scale": 0.018922759972366632, "dtype": "uint8"}}, {"name": "FeatureExtractor/MobilenetV2/expanded_conv_16/depthwise/BatchNorm_Fold/bias", "shape": [960], "dtype": "float32", "quantization": {"min": -5.056723577835981, "scale": 0.07328584895414465, "dtype": "uint8"}}, {"name": "FeatureExtractor/MobilenetV2/expanded_conv_16/project/BatchNorm_Fold/bias", "shape": [320], "dtype": "float32", "quantization": {"min": -6.363697612986845, "scale": 0.05090958090389476, "dtype": "uint8"}}, {"name": "FeatureExtractor/MobilenetV2/Conv_1/BatchNorm_Fold/bias", "shape": [1280], "dtype": "float32", "quantization": {"min": -5.460312151441387, "scale": 0.02625150072808359, "dtype": "uint8"}}, {"name": "FeatureExtractor/MobilenetV2/layer_19_1_Conv2d_2_1x1_256/BatchNorm_Fold/bias", "shape": [256], "dtype": "float32", "quantization": {"min": -2.449740954941394, "scale": 0.018700312633140415, "dtype": "uint8"}}, {"name": "FeatureExtractor/MobilenetV2/layer_19_2_Conv2d_2_3x3_s2_512/BatchNorm_Fold/bias", "shape": [512], "dtype": "float32", "quantization": {"min": -4.303103385252111, "scale": 0.031181908588783412, "dtype": "uint8"}}, {"name": "FeatureExtractor/MobilenetV2/layer_19_1_Conv2d_3_1x1_128/BatchNorm_Fold/bias", "shape": [128], "dtype": "float32", "quantization": {"min": -1.2164270597345688, "scale": 0.008688764712389777, "dtype": "uint8"}}, {"name": "FeatureExtractor/MobilenetV2/layer_19_2_Conv2d_3_3x3_s2_256/BatchNorm_Fold/bias", "shape": [256], "dtype": "float32", "quantization": {"min": -2.0602796591964423, "scale": 0.02482264649634268, "dtype": "uint8"}}, {"name": "FeatureExtractor/MobilenetV2/layer_19_1_Conv2d_4_1x1_128/BatchNorm_Fold/bias", "shape": [128], "dtype": "float32", "quantization": {"min": -2.9562662119958913, "scale": 0.018829721095515232, "dtype": "uint8"}}, {"name": "FeatureExtractor/MobilenetV2/layer_19_2_Conv2d_4_3x3_s2_256/BatchNorm_Fold/bias", "shape": [256], "dtype": "float32", "quantization": {"min": -1.9913577547260357, "scale": 0.02315532272937251, "dtype": "uint8"}}, {"name": "FeatureExtractor/MobilenetV2/layer_19_1_Conv2d_5_1x1_64/BatchNorm_Fold/bias", "shape": [64], "dtype": "float32", "quantization": {"min": -2.7010042527142692, "scale": 0.018627615535960478, "dtype": "uint8"}}, {"name": "FeatureExtractor/MobilenetV2/layer_19_2_Conv2d_5_3x3_s2_128/BatchNorm_Fold/bias", "shape": [128], "dtype": "float32", "quantization": {"min": -10.08913771685432, "scale": 0.07006345636704389, "dtype": "uint8"}}, {"name": "FeatureExtractor/MobilenetV2/expanded_conv_2/project/weights_quant/FakeQuantWithMinMaxVars", "shape": [1, 1, 144, 24], "dtype": "float32", "quantization": {"min": -2.3933533191680905, "scale": 0.018269872665405272, "dtype": "uint8"}}, {"name": "FeatureExtractor/MobilenetV2/expanded_conv_2/project/act_quant/min", "shape": [], "dtype": "float32", "quantization": {"min": -49.986324310302734, "scale": 1.0, "dtype": "uint8"}}, {"name": "FeatureExtractor/MobilenetV2/expanded_conv_2/project/act_quant/max", "shape": [], "dtype": "float32", "quantization": {"min": 40.18292999267578, "scale": 1.0, "dtype": "uint8"}}, {"name": "FeatureExtractor/MobilenetV2/expanded_conv_2/post_activation_bypass_quant/min", "shape": [], "dtype": "float32", "quantization": {"min": -49.077816009521484, "scale": 1.0, "dtype": "uint8"}}, {"name": "BoxPredictor_3/BoxEncodingPredictor/weights_quant/FakeQuantWithMinMaxVars", "shape": [1, 1, 256, 24], "dtype": "float32", "quantization": {"min": -0.424363591039882, "scale": 0.0032394167254952825, "dtype": "uint8"}}, {"name": "FeatureExtractor/MobilenetV2/expanded_conv_2/post_activation_bypass_quant/max", "shape": [], "dtype": "float32", "quantization": {"min": 44.38289260864258, "scale": 1.0, "dtype": "uint8"}}, {"name": "FeatureExtractor/MobilenetV2/expanded_conv_4/project/weights_quant/FakeQuantWithMinMaxVars", "shape": [1, 1, 192, 32], "dtype": "float32", "quantization": {"min": -1.1846242792466108, "scale": 0.009871868993721757, "dtype": "uint8"}}, {"name": "FeatureExtractor/MobilenetV2/expanded_conv_4/project/act_quant/min", "shape": [], "dtype": "float32", "quantization": {"min": -20.305078506469727, "scale": 1.0, "dtype": "uint8"}}, {"name": "FeatureExtractor/MobilenetV2/expanded_conv_4/project/act_quant/max", "shape": [], "dtype": "float32", "quantization": {"min": 28.302635192871094, "scale": 1.0, "dtype": "uint8"}}, {"name": "FeatureExtractor/MobilenetV2/expanded_conv_4/post_activation_bypass_quant/min", "shape": [], "dtype": "float32", "quantization": {"min": -30.96869659423828, "scale": 1.0, "dtype": "uint8"}}, {"name": "FeatureExtractor/MobilenetV2/expanded_conv_4/post_activation_bypass_quant/max", "shape": [], "dtype": "float32", "quantization": {"min": 33.18302917480469, "scale": 1.0, "dtype": "uint8"}}, {"name": "BoxPredictor_3/BoxEncodingPredictor/act_quant/min", "shape": [], "dtype": "float32", "quantization": {"min": -3.6153180599212646, "scale": 1.0, "dtype": "uint8"}}, {"name": "FeatureExtractor/MobilenetV2/expanded_conv_5/project/weights_quant/FakeQuantWithMinMaxVars", "shape": [1, 1, 192, 32], "dtype": "float32", "quantization": {"min": -1.888219340174806, "scale": 0.015105754721398447, "dtype": "uint8"}}, {"name": "FeatureExtractor/MobilenetV2/expanded_conv_5/project/act_quant/min", "shape": [], "dtype": "float32", "quantization": {"min": -32.40021896362305, "scale": 1.0, "dtype": "uint8"}}, {"name": "FeatureExtractor/MobilenetV2/expanded_conv_16/expand/weights_quant/FakeQuantWithMinMaxVars", "shape": [1, 1, 160, 960], "dtype": "float32", "quantization": {"min": -0.1422840046532014, "scale": 0.0010310435119797203, "dtype": "uint8"}}, {"name": "FeatureExtractor/MobilenetV2/expanded_conv_5/project/act_quant/max", "shape": [], "dtype": "float32", "quantization": {"min": 26.988628387451172, "scale": 1.0, "dtype": "uint8"}}, {"name": "FeatureExtractor/MobilenetV2/expanded_conv_5/post_activation_bypass_quant/min", "shape": [], "dtype": "float32", "quantization": {"min": -43.211666107177734, "scale": 1.0, "dtype": "uint8"}}, {"name": "FeatureExtractor/MobilenetV2/expanded_conv_5/post_activation_bypass_quant/max", "shape": [], "dtype": "float32", "quantization": {"min": 42.89040756225586, "scale": 1.0, "dtype": "uint8"}}, {"name": "BoxPredictor_3/BoxEncodingPredictor/act_quant/max", "shape": [], "dtype": "float32", "quantization": {"min": 3.7540080547332764, "scale": 1.0, "dtype": "uint8"}}, {"name": "FeatureExtractor/MobilenetV2/expanded_conv_7/project/weights_quant/FakeQuantWithMinMaxVars", "shape": [1, 1, 384, 64], "dtype": "float32", "quantization": {"min": -0.8543280508003983, "scale": 0.006674437896878112, "dtype": "uint8"}}, {"name": "FeatureExtractor/MobilenetV2/expanded_conv_7/project/act_quant/min", "shape": [], "dtype": "float32", "quantization": {"min": -17.091781616210938, "scale": 1.0, "dtype": "uint8"}}, {"name": "FeatureExtractor/MobilenetV2/expanded_conv_7/project/act_quant/max", "shape": [], "dtype": "float32", "quantization": {"min": 16.47964859008789, "scale": 1.0, "dtype": "uint8"}}, {"name": "FeatureExtractor/MobilenetV2/expanded_conv_7/post_activation_bypass_quant/min", "shape": [], "dtype": "float32", "quantization": {"min": -26.56905174255371, "scale": 1.0, "dtype": "uint8"}}, {"name": "FeatureExtractor/MobilenetV2/expanded_conv_7/post_activation_bypass_quant/max", "shape": [], "dtype": "float32", "quantization": {"min": 23.172626495361328, "scale": 1.0, "dtype": "uint8"}}, {"name": "FeatureExtractor/MobilenetV2/expanded_conv_8/project/weights_quant/FakeQuantWithMinMaxVars", "shape": [1, 1, 384, 64], "dtype": "float32", "quantization": {"min": -1.4814270131728229, "scale": 0.012994973799761604, "dtype": "uint8"}}, {"name": "FeatureExtractor/MobilenetV2/expanded_conv_8/project/act_quant/min", "shape": [], "dtype": "float32", "quantization": {"min": -18.78178596496582, "scale": 1.0, "dtype": "uint8"}}, {"name": "FeatureExtractor/MobilenetV2/expanded_conv_8/project/act_quant/max", "shape": [], "dtype": "float32", "quantization": {"min": 20.08977699279785, "scale": 1.0, "dtype": "uint8"}}, {"name": "FeatureExtractor/MobilenetV2/expanded_conv_8/post_activation_bypass_quant/min", "shape": [], "dtype": "float32", "quantization": {"min": -29.592756271362305, "scale": 1.0, "dtype": "uint8"}}, {"name": "FeatureExtractor/MobilenetV2/expanded_conv_16/depthwise/weights_quant/FakeQuantWithMinMaxVars", "shape": [3, 3, 960, 1], "dtype": "float32", "quantization": {"min": -4.2100428973927215, "scale": 0.032384945364559395, "dtype": "uint8"}}, {"name": "FeatureExtractor/MobilenetV2/expanded_conv_8/post_activation_bypass_quant/max", "shape": [], "dtype": "float32", "quantization": {"min": 27.680675506591797, "scale": 1.0, "dtype": "uint8"}}, {"name": "FeatureExtractor/MobilenetV2/expanded_conv_9/project/weights_quant/FakeQuantWithMinMaxVars", "shape": [1, 1, 384, 64], "dtype": "float32", "quantization": {"min": -2.5267223021563363, "scale": 0.02071083854226505, "dtype": "uint8"}}, {"name": "FeatureExtractor/MobilenetV2/expanded_conv_9/project/act_quant/min", "shape": [], "dtype": "float32", "quantization": {"min": -26.52498435974121, "scale": 1.0, "dtype": "uint8"}}, {"name": "FeatureExtractor/MobilenetV2/expanded_conv_9/project/act_quant/max", "shape": [], "dtype": "float32", "quantization": {"min": 23.63853645324707, "scale": 1.0, "dtype": "uint8"}}, {"name": "FeatureExtractor/MobilenetV2/expanded_conv_9/post_activation_bypass_quant/min", "shape": [], "dtype": "float32", "quantization": {"min": -35.554569244384766, "scale": 1.0, "dtype": "uint8"}}, {"name": "FeatureExtractor/MobilenetV2/expanded_conv_9/post_activation_bypass_quant/max", "shape": [], "dtype": "float32", "quantization": {"min": 32.742637634277344, "scale": 1.0, "dtype": "uint8"}}, {"name": "FeatureExtractor/MobilenetV2/expanded_conv_11/project/weights_quant/FakeQuantWithMinMaxVars", "shape": [1, 1, 576, 96], "dtype": "float32", "quantization": {"min": -1.3847186775768505, "scale": 0.017983359449050006, "dtype": "uint8"}}, {"name": "FeatureExtractor/MobilenetV2/expanded_conv_11/project/act_quant/min", "shape": [], "dtype": "float32", "quantization": {"min": -31.290815353393555, "scale": 1.0, "dtype": "uint8"}}, {"name": "FeatureExtractor/MobilenetV2/expanded_conv_11/project/act_quant/max", "shape": [], "dtype": "float32", "quantization": {"min": 42.360023498535156, "scale": 1.0, "dtype": "uint8"}}, {"name": "BoxPredictor_3/ClassPredictor/weights_quant/FakeQuantWithMinMaxVars", "shape": [1, 1, 256, 546], "dtype": "float32", "quantization": {"min": -0.4250513378311606, "scale": 0.0031720249091877657, "dtype": "uint8"}}, {"name": "FeatureExtractor/MobilenetV2/expanded_conv_11/post_activation_bypass_quant/min", "shape": [], "dtype": "float32", "quantization": {"min": -32.59733581542969, "scale": 1.0, "dtype": "uint8"}}, {"name": "FeatureExtractor/MobilenetV2/expanded_conv_11/post_activation_bypass_quant/max", "shape": [], "dtype": "float32", "quantization": {"min": 42.72926330566406, "scale": 1.0, "dtype": "uint8"}}, {"name": "FeatureExtractor/MobilenetV2/expanded_conv_16/project/weights_quant/FakeQuantWithMinMaxVars", "shape": [1, 1, 960, 320], "dtype": "float32", "quantization": {"min": -0.6583539252187692, "scale": 0.0058781600465961535, "dtype": "uint8"}}, {"name": "FeatureExtractor/MobilenetV2/expanded_conv_12/project/weights_quant/FakeQuantWithMinMaxVars", "shape": [1, 1, 576, 96], "dtype": "float32", "quantization": {"min": -4.268270310233621, "scale": 0.030706980649162743, "dtype": "uint8"}}, {"name": "FeatureExtractor/MobilenetV2/expanded_conv_12/project/act_quant/min", "shape": [], "dtype": "float32", "quantization": {"min": -46.604576110839844, "scale": 1.0, "dtype": "uint8"}}, {"name": "FeatureExtractor/MobilenetV2/expanded_conv_12/project/act_quant/max", "shape": [], "dtype": "float32", "quantization": {"min": 39.88624954223633, "scale": 1.0, "dtype": "uint8"}}, {"name": "FeatureExtractor/MobilenetV2/expanded_conv_12/post_activation_bypass_quant/min", "shape": [], "dtype": "float32", "quantization": {"min": -50.36305618286133, "scale": 1.0, "dtype": "uint8"}}, {"name": "FeatureExtractor/MobilenetV2/expanded_conv_16/project/act_quant/min", "shape": [], "dtype": "float32", "quantization": {"min": -23.547679901123047, "scale": 1.0, "dtype": "uint8"}}, {"name": "FeatureExtractor/MobilenetV2/expanded_conv_12/post_activation_bypass_quant/max", "shape": [], "dtype": "float32", "quantization": {"min": 66.81855773925781, "scale": 1.0, "dtype": "uint8"}}, {"name": "BoxPredictor_3/ClassPredictor/act_quant/min", "shape": [], "dtype": "float32", "quantization": {"min": -17.4913272857666, "scale": 1.0, "dtype": "uint8"}}, {"name": "FeatureExtractor/MobilenetV2/expanded_conv_16/project/act_quant/max", "shape": [], "dtype": "float32", "quantization": {"min": 15.412640571594238, "scale": 1.0, "dtype": "uint8"}}, {"name": "BoxPredictor_4/ClassPredictor/weights_quant/FakeQuantWithMinMaxVars", "shape": [1, 1, 256, 546], "dtype": "float32", "quantization": {"min": -0.6018287326775346, "scale": 0.0032708083297692094, "dtype": "uint8"}}, {"name": "FeatureExtractor/MobilenetV2/expanded_conv_14/project/weights_quant/FakeQuantWithMinMaxVars", "shape": [1, 1, 960, 160], "dtype": "float32", "quantization": {"min": -0.7849374453226725, "scale": 0.00577159886266671, "dtype": "uint8"}}, {"name": "FeatureExtractor/MobilenetV2/expanded_conv_14/project/act_quant/min", "shape": [], "dtype": "float32", "quantization": {"min": -15.500144004821777, "scale": 1.0, "dtype": "uint8"}}, {"name": "FeatureExtractor/MobilenetV2/expanded_conv_14/project/act_quant/max", "shape": [], "dtype": "float32", "quantization": {"min": 12.984335899353027, "scale": 1.0, "dtype": "uint8"}}, {"name": "BoxPredictor_3/ClassPredictor/act_quant/max", "shape": [], "dtype": "float32", "quantization": {"min": 4.637217044830322, "scale": 1.0, "dtype": "uint8"}}, {"name": "FeatureExtractor/MobilenetV2/expanded_conv_14/post_activation_bypass_quant/min", "shape": [], "dtype": "float32", "quantization": {"min": -23.215564727783203, "scale": 1.0, "dtype": "uint8"}}, {"name": "FeatureExtractor/MobilenetV2/expanded_conv_14/post_activation_bypass_quant/max", "shape": [], "dtype": "float32", "quantization": {"min": 19.923168182373047, "scale": 1.0, "dtype": "uint8"}}, {"name": "FeatureExtractor/MobilenetV2/expanded_conv_15/project/weights_quant/FakeQuantWithMinMaxVars", "shape": [1, 1, 960, 160], "dtype": "float32", "quantization": {"min": -1.3329728294821346, "scale": 0.01200876422956878, "dtype": "uint8"}}, {"name": "FeatureExtractor/MobilenetV2/expanded_conv_15/project/act_quant/min", "shape": [], "dtype": "float32", "quantization": {"min": -32.8056755065918, "scale": 1.0, "dtype": "uint8"}}, {"name": "FeatureExtractor/MobilenetV2/Conv_1/weights_quant/FakeQuantWithMinMaxVars", "shape": [1, 1, 320, 1280], "dtype": "float32", "quantization": {"min": -0.4303283837496065, "scale": 0.003947966823390886, "dtype": "uint8"}}, {"name": "FeatureExtractor/MobilenetV2/expanded_conv_15/project/act_quant/max", "shape": [], "dtype": "float32", "quantization": {"min": 27.52349281311035, "scale": 1.0, "dtype": "uint8"}}, {"name": "FeatureExtractor/MobilenetV2/expanded_conv_15/post_activation_bypass_quant/min", "shape": [], "dtype": "float32", "quantization": {"min": -47.140926361083984, "scale": 1.0, "dtype": "uint8"}}, {"name": "FeatureExtractor/MobilenetV2/expanded_conv_15/post_activation_bypass_quant/max", "shape": [], "dtype": "float32", "quantization": {"min": 37.257667541503906, "scale": 1.0, "dtype": "uint8"}}, {"name": "FeatureExtractor/MobilenetV2/Conv/weights_quant/FakeQuantWithMinMaxVars", "shape": [3, 3, 3, 32], "dtype": "float32", "quantization": {"min": -4.425567985983456, "scale": 0.03352703019684436, "dtype": "uint8"}}, {"name": "FeatureExtractor/MobilenetV2/expanded_conv/depthwise/weights_quant/FakeQuantWithMinMaxVars", "shape": [3, 3, 32, 1], "dtype": "float32", "quantization": {"min": -22.069625181310315, "scale": 0.15220431159524356, "dtype": "uint8"}}, {"name": "FeatureExtractor/MobilenetV2/expanded_conv/project/weights_quant/FakeQuantWithMinMaxVars", "shape": [1, 1, 32, 16], "dtype": "float32", "quantization": {"min": -2.519601934096393, "scale": 0.01749723565344717, "dtype": "uint8"}}, {"name": "FeatureExtractor/MobilenetV2/expanded_conv/project/act_quant/min", "shape": [], "dtype": "float32", "quantization": {"min": -31.917593002319336, "scale": 1.0, "dtype": "uint8"}}, {"name": "FeatureExtractor/MobilenetV2/expanded_conv/project/act_quant/max", "shape": [], "dtype": "float32", "quantization": {"min": 29.219327926635742, "scale": 1.0, "dtype": "uint8"}}, {"name": "FeatureExtractor/MobilenetV2/layer_19_1_Conv2d_2_1x1_256/weights_quant/FakeQuantWithMinMaxVars", "shape": [1, 1, 1280, 256], "dtype": "float32", "quantization": {"min": -0.4749402306827844, "scale": 0.004203010890998092, "dtype": "uint8"}}, {"name": "FeatureExtractor/MobilenetV2/expanded_conv_1/expand/weights_quant/FakeQuantWithMinMaxVars", "shape": [1, 1, 16, 96], "dtype": "float32", "quantization": {"min": -0.7064713515487372, "scale": 0.00579074878318637, "dtype": "uint8"}}, {"name": "BoxPredictor_4/ClassPredictor/act_quant/min", "shape": [], "dtype": "float32", "quantization": {"min": -15.263229370117188, "scale": 1.0, "dtype": "uint8"}}, {"name": "BoxPredictor_4/BoxEncodingPredictor/weights_quant/FakeQuantWithMinMaxVars", "shape": [1, 1, 256, 24], "dtype": "float32", "quantization": {"min": -0.20432880065020392, "scale": 0.0021284250067729574, "dtype": "uint8"}}, {"name": "FeatureExtractor/MobilenetV2/expanded_conv_1/depthwise/weights_quant/FakeQuantWithMinMaxVars", "shape": [3, 3, 96, 1], "dtype": "float32", "quantization": {"min": -2.553233885765076, "scale": 0.016687803174935137, "dtype": "uint8"}}, {"name": "FeatureExtractor/MobilenetV2/layer_19_2_Conv2d_2_3x3_s2_512/weights_quant/FakeQuantWithMinMaxVars", "shape": [3, 3, 256, 512], "dtype": "float32", "quantization": {"min": -1.077754927149006, "scale": 0.008042947217529895, "dtype": "uint8"}}, {"name": "FeatureExtractor/MobilenetV2/expanded_conv_1/project/weights_quant/FakeQuantWithMinMaxVars", "shape": [1, 1, 96, 24], "dtype": "float32", "quantization": {"min": -1.880101173064288, "scale": 0.013623921543944116, "dtype": "uint8"}}, {"name": "FeatureExtractor/MobilenetV2/expanded_conv_1/project/act_quant/min", "shape": [], "dtype": "float32", "quantization": {"min": -26.092994689941406, "scale": 1.0, "dtype": "uint8"}}, {"name": "FeatureExtractor/MobilenetV2/expanded_conv_1/project/act_quant/max", "shape": [], "dtype": "float32", "quantization": {"min": 27.846792221069336, "scale": 1.0, "dtype": "uint8"}}, {"name": "BoxPredictor_4/BoxEncodingPredictor/act_quant/min", "shape": [], "dtype": "float32", "quantization": {"min": -2.7813169956207275, "scale": 1.0, "dtype": "uint8"}}, {"name": "FeatureExtractor/MobilenetV2/expanded_conv_2/expand/weights_quant/FakeQuantWithMinMaxVars", "shape": [1, 1, 24, 144], "dtype": "float32", "quantization": {"min": -0.2877902933195526, "scale": 0.0021968724680881875, "dtype": "uint8"}}, {"name": "FeatureExtractor/MobilenetV2/expanded_conv_2/depthwise/weights_quant/FakeQuantWithMinMaxVars", "shape": [3, 3, 144, 1], "dtype": "float32", "quantization": {"min": -9.680623222799863, "scale": 0.05975693347407322, "dtype": "uint8"}}, {"name": "BoxPredictor_4/BoxEncodingPredictor/act_quant/max", "shape": [], "dtype": "float32", "quantization": {"min": 2.4005746841430664, "scale": 1.0, "dtype": "uint8"}}, {"name": "FeatureExtractor/MobilenetV2/layer_19_1_Conv2d_3_1x1_128/weights_quant/FakeQuantWithMinMaxVars", "shape": [1, 1, 512, 128], "dtype": "float32", "quantization": {"min": -0.28301147923750036, "scale": 0.0022461228510912727, "dtype": "uint8"}}, {"name": "FeatureExtractor/MobilenetV2/expanded_conv_3/expand/weights_quant/FakeQuantWithMinMaxVars", "shape": [1, 1, 24, 144], "dtype": "float32", "quantization": {"min": -0.20233750927682015, "scale": 0.0015099814125135833, "dtype": "uint8"}}, {"name": "FeatureExtractor/MobilenetV2/layer_19_1_Conv2d_3_1x1_128/act_quant/max", "shape": [], "dtype": "float32", "quantization": {"min": 4.383586406707764, "scale": 1.0, "dtype": "uint8"}}, {"name": "FeatureExtractor/MobilenetV2/expanded_conv_3/depthwise/weights_quant/FakeQuantWithMinMaxVars", "shape": [3, 3, 144, 1], "dtype": "float32", "quantization": {"min": -1.4231248589122996, "scale": 0.013300232326283174, "dtype": "uint8"}}, {"name": "FeatureExtractor/MobilenetV2/expanded_conv_3/project/weights_quant/FakeQuantWithMinMaxVars", "shape": [1, 1, 144, 32], "dtype": "float32", "quantization": {"min": -1.3472750308466892, "scale": 0.010129887449975106, "dtype": "uint8"}}, {"name": "FeatureExtractor/MobilenetV2/expanded_conv_3/project/act_quant/min", "shape": [], "dtype": "float32", "quantization": {"min": -23.50214385986328, "scale": 1.0, "dtype": "uint8"}}, {"name": "FeatureExtractor/MobilenetV2/layer_19_2_Conv2d_3_3x3_s2_256/weights_quant/FakeQuantWithMinMaxVars", "shape": [3, 3, 128, 256], "dtype": "float32", "quantization": {"min": -1.7179950826308306, "scale": 0.014081926906810087, "dtype": "uint8"}}, {"name": "FeatureExtractor/MobilenetV2/expanded_conv_3/project/act_quant/max", "shape": [], "dtype": "float32", "quantization": {"min": 23.904510498046875, "scale": 1.0, "dtype": "uint8"}}, {"name": "FeatureExtractor/MobilenetV2/expanded_conv_4/expand/weights_quant/FakeQuantWithMinMaxVars", "shape": [1, 1, 32, 192], "dtype": "float32", "quantization": {"min": -0.17739964291161184, "scale": 0.0013646126377816294, "dtype": "uint8"}}, {"name": "FeatureExtractor/MobilenetV2/expanded_conv_4/depthwise/weights_quant/FakeQuantWithMinMaxVars", "shape": [3, 3, 192, 1], "dtype": "float32", "quantization": {"min": -3.5418228289660285, "scale": 0.027455990922217274, "dtype": "uint8"}}, {"name": "FeatureExtractor/MobilenetV2/expanded_conv_5/expand/weights_quant/FakeQuantWithMinMaxVars", "shape": [1, 1, 32, 192], "dtype": "float32", "quantization": {"min": -0.170361502439368, "scale": 0.0012256223197076835, "dtype": "uint8"}}, {"name": "FeatureExtractor/MobilenetV2/layer_19_1_Conv2d_4_1x1_128/weights_quant/FakeQuantWithMinMaxVars", "shape": [1, 1, 256, 128], "dtype": "float32", "quantization": {"min": -0.3656399820365158, "scale": 0.0032646426967546053, "dtype": "uint8"}}, {"name": "FeatureExtractor/MobilenetV2/expanded_conv_5/depthwise/weights_quant/FakeQuantWithMinMaxVars", "shape": [3, 3, 192, 1], "dtype": "float32", "quantization": {"min": -2.70461405024809, "scale": 0.02163691240198472, "dtype": "uint8"}}, {"name": "FeatureExtractor/MobilenetV2/layer_19_1_Conv2d_4_1x1_128/act_quant/max", "shape": [], "dtype": "float32", "quantization": {"min": 5.820826530456543, "scale": 1.0, "dtype": "uint8"}}, {"name": "FeatureExtractor/MobilenetV2/expanded_conv_6/expand/weights_quant/FakeQuantWithMinMaxVars", "shape": [1, 1, 32, 192], "dtype": "float32", "quantization": {"min": -0.15676485825987424, "scale": 0.0012745110427632052, "dtype": "uint8"}}, {"name": "FeatureExtractor/MobilenetV2/layer_19_2_Conv2d_4_3x3_s2_256/weights_quant/FakeQuantWithMinMaxVars", "shape": [3, 3, 128, 256], "dtype": "float32", "quantization": {"min": -1.5152416042253083, "scale": 0.011655704647886986, "dtype": "uint8"}}, {"name": "FeatureExtractor/MobilenetV2/expanded_conv_6/depthwise/weights_quant/FakeQuantWithMinMaxVars", "shape": [3, 3, 192, 1], "dtype": "float32", "quantization": {"min": -1.8174855961519127, "scale": 0.0252428555021099, "dtype": "uint8"}}, {"name": "FeatureExtractor/MobilenetV2/expanded_conv_6/project/weights_quant/FakeQuantWithMinMaxVars", "shape": [1, 1, 192, 64], "dtype": "float32", "quantization": {"min": -1.0716378268073588, "scale": 0.008307269975250843, "dtype": "uint8"}}, {"name": "FeatureExtractor/MobilenetV2/expanded_conv_6/project/act_quant/min", "shape": [], "dtype": "float32", "quantization": {"min": -21.298553466796875, "scale": 1.0, "dtype": "uint8"}}, {"name": "FeatureExtractor/MobilenetV2/expanded_conv_6/project/act_quant/max", "shape": [], "dtype": "float32", "quantization": {"min": 18.2150936126709, "scale": 1.0, "dtype": "uint8"}}, {"name": "ConstantFolding/Postprocessor/Decode/get_center_coordinates_and_sizes/truediv_1_recip", "shape": [], "dtype": "float32", "quantization": {"min": 0.5, "scale": 1.0, "dtype": "uint8"}}, {"name": "ConstantFolding/Postprocessor/Decode/truediv_recip", "shape": [], "dtype": "float32", "quantization": {"min": 0.10000000149011612, "scale": 1.0, "dtype": "uint8"}}, {"name": "ConstantFolding/Postprocessor/Decode/truediv_2_recip", "shape": [], "dtype": "float32", "quantization": {"min": 0.20000000298023224, "scale": 1.0, "dtype": "uint8"}}, {"name": "Postprocessor/ExpandDims", "shape": [1, 1917, 4], "dtype": "float32", "quantization": {"min": -0.44369642874773807, "scale": 0.007394940479128968, "dtype": "uint8"}}, {"name": "Preprocessor/map/while/add/y", "shape": [], "dtype": "int32"}, {"name": "Preprocessor/map/while/ResizeImage/stack", "shape": [2], "dtype": "int32"}, {"name": "Preprocessor/map/while/ResizeImage/resize/ExpandDims/dim", "shape": [], "dtype": "int32"}]}]}